<?xml version="1.0"?>
<net name="tf2onnx" version="11">
	<layers>
		<layer id="0" name="input_4" type="Parameter" version="opset1">
			<data shape="?,?,?,3" element_type="f32" />
			<rt_info>
				<attribute name="old_api_map_element_type" version="0" value="f16" />
			</rt_info>
			<output>
				<port id="0" precision="FP32" names="input_4">
					<dim>-1</dim>
					<dim>-1</dim>
					<dim>-1</dim>
					<dim>3</dim>
				</port>
			</output>
		</layer>
		<layer id="1" name="Constant_174" type="Const" version="opset1">
			<data element_type="i64" shape="4" offset="0" size="32" />
			<output>
				<port id="0" precision="I64">
					<dim>4</dim>
				</port>
			</output>
		</layer>
		<layer id="2" name="StatefulPartitionedCall/model_3/conv2d_153/BiasAdd__6" type="Transpose" version="opset1">
			<input>
				<port id="0" precision="FP32">
					<dim>-1</dim>
					<dim>-1</dim>
					<dim>-1</dim>
					<dim>3</dim>
				</port>
				<port id="1" precision="I64">
					<dim>4</dim>
				</port>
			</input>
			<output>
				<port id="2" precision="FP32" names="StatefulPartitionedCall/model_3/conv2d_153/BiasAdd__6:0">
					<dim>-1</dim>
					<dim>3</dim>
					<dim>-1</dim>
					<dim>-1</dim>
				</port>
			</output>
		</layer>
		<layer id="3" name="StatefulPartitionedCall/model_3/conv2d_153/Conv2D/ReadVariableOp:0_compressed" type="Const" version="opset1">
			<data element_type="f16" shape="32, 3, 3, 3" offset="32" size="1728" />
			<output>
				<port id="0" precision="FP16">
					<dim>32</dim>
					<dim>3</dim>
					<dim>3</dim>
					<dim>3</dim>
				</port>
			</output>
		</layer>
		<layer id="4" name="StatefulPartitionedCall/model_3/conv2d_153/Conv2D/ReadVariableOp:0" type="Convert" version="opset1">
			<data destination_type="f32" />
			<rt_info>
				<attribute name="decompression" version="0" />
			</rt_info>
			<input>
				<port id="0" precision="FP16">
					<dim>32</dim>
					<dim>3</dim>
					<dim>3</dim>
					<dim>3</dim>
				</port>
			</input>
			<output>
				<port id="1" precision="FP32" names="StatefulPartitionedCall/model_3/conv2d_153/Conv2D/ReadVariableOp:0">
					<dim>32</dim>
					<dim>3</dim>
					<dim>3</dim>
					<dim>3</dim>
				</port>
			</output>
		</layer>
		<layer id="5" name="StatefulPartitionedCall/model_3/conv2d_153/BiasAdd/WithoutBiases" type="Convolution" version="opset1">
			<data strides="1, 1" dilations="1, 1" pads_begin="0, 0" pads_end="0, 0" auto_pad="same_upper" />
			<input>
				<port id="0" precision="FP32">
					<dim>-1</dim>
					<dim>3</dim>
					<dim>-1</dim>
					<dim>-1</dim>
				</port>
				<port id="1" precision="FP32">
					<dim>32</dim>
					<dim>3</dim>
					<dim>3</dim>
					<dim>3</dim>
				</port>
			</input>
			<output>
				<port id="2" precision="FP32">
					<dim>-1</dim>
					<dim>32</dim>
					<dim>-1</dim>
					<dim>-1</dim>
				</port>
			</output>
		</layer>
		<layer id="6" name="Reshape_187_compressed" type="Const" version="opset1">
			<data element_type="f16" shape="1, 32, 1, 1" offset="1760" size="64" />
			<output>
				<port id="0" precision="FP16">
					<dim>1</dim>
					<dim>32</dim>
					<dim>1</dim>
					<dim>1</dim>
				</port>
			</output>
		</layer>
		<layer id="7" name="Reshape_187" type="Convert" version="opset1">
			<data destination_type="f32" />
			<rt_info>
				<attribute name="decompression" version="0" />
			</rt_info>
			<input>
				<port id="0" precision="FP16">
					<dim>1</dim>
					<dim>32</dim>
					<dim>1</dim>
					<dim>1</dim>
				</port>
			</input>
			<output>
				<port id="1" precision="FP32">
					<dim>1</dim>
					<dim>32</dim>
					<dim>1</dim>
					<dim>1</dim>
				</port>
			</output>
		</layer>
		<layer id="8" name="StatefulPartitionedCall/model_3/conv2d_153/BiasAdd" type="Add" version="opset1">
			<data auto_broadcast="numpy" />
			<input>
				<port id="0" precision="FP32">
					<dim>-1</dim>
					<dim>32</dim>
					<dim>-1</dim>
					<dim>-1</dim>
				</port>
				<port id="1" precision="FP32">
					<dim>1</dim>
					<dim>32</dim>
					<dim>1</dim>
					<dim>1</dim>
				</port>
			</input>
			<output>
				<port id="2" precision="FP32" names="StatefulPartitionedCall/model_3/conv2d_153/BiasAdd:0">
					<dim>-1</dim>
					<dim>32</dim>
					<dim>-1</dim>
					<dim>-1</dim>
				</port>
			</output>
		</layer>
		<layer id="9" name="StatefulPartitionedCall/model_3/conv2d_153/Relu" type="ReLU" version="opset1">
			<input>
				<port id="0" precision="FP32">
					<dim>-1</dim>
					<dim>32</dim>
					<dim>-1</dim>
					<dim>-1</dim>
				</port>
			</input>
			<output>
				<port id="1" precision="FP32" names="StatefulPartitionedCall/model_3/conv2d_153/Relu:0">
					<dim>-1</dim>
					<dim>32</dim>
					<dim>-1</dim>
					<dim>-1</dim>
				</port>
			</output>
		</layer>
		<layer id="10" name="StatefulPartitionedCall/model_3/conv2d_154/Conv2D/ReadVariableOp:0_compressed" type="Const" version="opset1">
			<data element_type="f16" shape="8, 32, 3, 3" offset="1824" size="4608" />
			<output>
				<port id="0" precision="FP16">
					<dim>8</dim>
					<dim>32</dim>
					<dim>3</dim>
					<dim>3</dim>
				</port>
			</output>
		</layer>
		<layer id="11" name="StatefulPartitionedCall/model_3/conv2d_154/Conv2D/ReadVariableOp:0" type="Convert" version="opset1">
			<data destination_type="f32" />
			<rt_info>
				<attribute name="decompression" version="0" />
			</rt_info>
			<input>
				<port id="0" precision="FP16">
					<dim>8</dim>
					<dim>32</dim>
					<dim>3</dim>
					<dim>3</dim>
				</port>
			</input>
			<output>
				<port id="1" precision="FP32" names="StatefulPartitionedCall/model_3/conv2d_154/Conv2D/ReadVariableOp:0">
					<dim>8</dim>
					<dim>32</dim>
					<dim>3</dim>
					<dim>3</dim>
				</port>
			</output>
		</layer>
		<layer id="12" name="StatefulPartitionedCall/model_3/conv2d_154/BiasAdd/WithoutBiases" type="Convolution" version="opset1">
			<data strides="1, 1" dilations="1, 1" pads_begin="0, 0" pads_end="0, 0" auto_pad="same_upper" />
			<input>
				<port id="0" precision="FP32">
					<dim>-1</dim>
					<dim>32</dim>
					<dim>-1</dim>
					<dim>-1</dim>
				</port>
				<port id="1" precision="FP32">
					<dim>8</dim>
					<dim>32</dim>
					<dim>3</dim>
					<dim>3</dim>
				</port>
			</input>
			<output>
				<port id="2" precision="FP32">
					<dim>-1</dim>
					<dim>8</dim>
					<dim>-1</dim>
					<dim>-1</dim>
				</port>
			</output>
		</layer>
		<layer id="13" name="Reshape_977_compressed" type="Const" version="opset1">
			<data element_type="f16" shape="1, 8, 1, 1" offset="6432" size="16" />
			<output>
				<port id="0" precision="FP16">
					<dim>1</dim>
					<dim>8</dim>
					<dim>1</dim>
					<dim>1</dim>
				</port>
			</output>
		</layer>
		<layer id="14" name="Reshape_977" type="Convert" version="opset1">
			<data destination_type="f32" />
			<rt_info>
				<attribute name="decompression" version="0" />
			</rt_info>
			<input>
				<port id="0" precision="FP16">
					<dim>1</dim>
					<dim>8</dim>
					<dim>1</dim>
					<dim>1</dim>
				</port>
			</input>
			<output>
				<port id="1" precision="FP32">
					<dim>1</dim>
					<dim>8</dim>
					<dim>1</dim>
					<dim>1</dim>
				</port>
			</output>
		</layer>
		<layer id="15" name="StatefulPartitionedCall/model_3/conv2d_154/BiasAdd" type="Add" version="opset1">
			<data auto_broadcast="numpy" />
			<input>
				<port id="0" precision="FP32">
					<dim>-1</dim>
					<dim>8</dim>
					<dim>-1</dim>
					<dim>-1</dim>
				</port>
				<port id="1" precision="FP32">
					<dim>1</dim>
					<dim>8</dim>
					<dim>1</dim>
					<dim>1</dim>
				</port>
			</input>
			<output>
				<port id="2" precision="FP32" names="StatefulPartitionedCall/model_3/conv2d_154/BiasAdd:0">
					<dim>-1</dim>
					<dim>8</dim>
					<dim>-1</dim>
					<dim>-1</dim>
				</port>
			</output>
		</layer>
		<layer id="16" name="StatefulPartitionedCall/model_3/conv2d_154/Relu" type="ReLU" version="opset1">
			<input>
				<port id="0" precision="FP32">
					<dim>-1</dim>
					<dim>8</dim>
					<dim>-1</dim>
					<dim>-1</dim>
				</port>
			</input>
			<output>
				<port id="1" precision="FP32" names="StatefulPartitionedCall/model_3/conv2d_154/Relu:0">
					<dim>-1</dim>
					<dim>8</dim>
					<dim>-1</dim>
					<dim>-1</dim>
				</port>
			</output>
		</layer>
		<layer id="17" name="StatefulPartitionedCall/model_3/conv2d_155/Conv2D/ReadVariableOp:0_compressed" type="Const" version="opset1">
			<data element_type="f16" shape="8, 8, 5, 5" offset="6448" size="3200" />
			<output>
				<port id="0" precision="FP16">
					<dim>8</dim>
					<dim>8</dim>
					<dim>5</dim>
					<dim>5</dim>
				</port>
			</output>
		</layer>
		<layer id="18" name="StatefulPartitionedCall/model_3/conv2d_155/Conv2D/ReadVariableOp:0" type="Convert" version="opset1">
			<data destination_type="f32" />
			<rt_info>
				<attribute name="decompression" version="0" />
			</rt_info>
			<input>
				<port id="0" precision="FP16">
					<dim>8</dim>
					<dim>8</dim>
					<dim>5</dim>
					<dim>5</dim>
				</port>
			</input>
			<output>
				<port id="1" precision="FP32" names="StatefulPartitionedCall/model_3/conv2d_155/Conv2D/ReadVariableOp:0">
					<dim>8</dim>
					<dim>8</dim>
					<dim>5</dim>
					<dim>5</dim>
				</port>
			</output>
		</layer>
		<layer id="19" name="StatefulPartitionedCall/model_3/conv2d_155/BiasAdd/WithoutBiases" type="Convolution" version="opset1">
			<data strides="1, 1" dilations="1, 1" pads_begin="0, 0" pads_end="0, 0" auto_pad="explicit" />
			<input>
				<port id="0" precision="FP32">
					<dim>-1</dim>
					<dim>8</dim>
					<dim>-1</dim>
					<dim>-1</dim>
				</port>
				<port id="1" precision="FP32">
					<dim>8</dim>
					<dim>8</dim>
					<dim>5</dim>
					<dim>5</dim>
				</port>
			</input>
			<output>
				<port id="2" precision="FP32">
					<dim>-1</dim>
					<dim>8</dim>
					<dim>-1</dim>
					<dim>-1</dim>
				</port>
			</output>
		</layer>
		<layer id="20" name="Reshape_993_compressed" type="Const" version="opset1">
			<data element_type="f16" shape="1, 8, 1, 1" offset="9648" size="16" />
			<output>
				<port id="0" precision="FP16">
					<dim>1</dim>
					<dim>8</dim>
					<dim>1</dim>
					<dim>1</dim>
				</port>
			</output>
		</layer>
		<layer id="21" name="Reshape_993" type="Convert" version="opset1">
			<data destination_type="f32" />
			<rt_info>
				<attribute name="decompression" version="0" />
			</rt_info>
			<input>
				<port id="0" precision="FP16">
					<dim>1</dim>
					<dim>8</dim>
					<dim>1</dim>
					<dim>1</dim>
				</port>
			</input>
			<output>
				<port id="1" precision="FP32">
					<dim>1</dim>
					<dim>8</dim>
					<dim>1</dim>
					<dim>1</dim>
				</port>
			</output>
		</layer>
		<layer id="22" name="StatefulPartitionedCall/model_3/conv2d_155/BiasAdd" type="Add" version="opset1">
			<data auto_broadcast="numpy" />
			<input>
				<port id="0" precision="FP32">
					<dim>-1</dim>
					<dim>8</dim>
					<dim>-1</dim>
					<dim>-1</dim>
				</port>
				<port id="1" precision="FP32">
					<dim>1</dim>
					<dim>8</dim>
					<dim>1</dim>
					<dim>1</dim>
				</port>
			</input>
			<output>
				<port id="2" precision="FP32" names="StatefulPartitionedCall/model_3/conv2d_155/BiasAdd:0">
					<dim>-1</dim>
					<dim>8</dim>
					<dim>-1</dim>
					<dim>-1</dim>
				</port>
			</output>
		</layer>
		<layer id="23" name="StatefulPartitionedCall/model_3/conv2d_155/Relu" type="ReLU" version="opset1">
			<input>
				<port id="0" precision="FP32">
					<dim>-1</dim>
					<dim>8</dim>
					<dim>-1</dim>
					<dim>-1</dim>
				</port>
			</input>
			<output>
				<port id="1" precision="FP32" names="StatefulPartitionedCall/model_3/conv2d_155/Relu:0">
					<dim>-1</dim>
					<dim>8</dim>
					<dim>-1</dim>
					<dim>-1</dim>
				</port>
			</output>
		</layer>
		<layer id="24" name="StatefulPartitionedCall/model_3/conv2d_156/Conv2D/ReadVariableOp:0_compressed" type="Const" version="opset1">
			<data element_type="f16" shape="16, 8, 5, 5" offset="9664" size="6400" />
			<output>
				<port id="0" precision="FP16">
					<dim>16</dim>
					<dim>8</dim>
					<dim>5</dim>
					<dim>5</dim>
				</port>
			</output>
		</layer>
		<layer id="25" name="StatefulPartitionedCall/model_3/conv2d_156/Conv2D/ReadVariableOp:0" type="Convert" version="opset1">
			<data destination_type="f32" />
			<rt_info>
				<attribute name="decompression" version="0" />
			</rt_info>
			<input>
				<port id="0" precision="FP16">
					<dim>16</dim>
					<dim>8</dim>
					<dim>5</dim>
					<dim>5</dim>
				</port>
			</input>
			<output>
				<port id="1" precision="FP32" names="StatefulPartitionedCall/model_3/conv2d_156/Conv2D/ReadVariableOp:0">
					<dim>16</dim>
					<dim>8</dim>
					<dim>5</dim>
					<dim>5</dim>
				</port>
			</output>
		</layer>
		<layer id="26" name="StatefulPartitionedCall/model_3/conv2d_156/BiasAdd/WithoutBiases" type="Convolution" version="opset1">
			<data strides="1, 1" dilations="1, 1" pads_begin="0, 0" pads_end="0, 0" auto_pad="explicit" />
			<input>
				<port id="0" precision="FP32">
					<dim>-1</dim>
					<dim>8</dim>
					<dim>-1</dim>
					<dim>-1</dim>
				</port>
				<port id="1" precision="FP32">
					<dim>16</dim>
					<dim>8</dim>
					<dim>5</dim>
					<dim>5</dim>
				</port>
			</input>
			<output>
				<port id="2" precision="FP32">
					<dim>-1</dim>
					<dim>16</dim>
					<dim>-1</dim>
					<dim>-1</dim>
				</port>
			</output>
		</layer>
		<layer id="27" name="Reshape_1009_compressed" type="Const" version="opset1">
			<data element_type="f16" shape="1, 16, 1, 1" offset="16064" size="32" />
			<output>
				<port id="0" precision="FP16">
					<dim>1</dim>
					<dim>16</dim>
					<dim>1</dim>
					<dim>1</dim>
				</port>
			</output>
		</layer>
		<layer id="28" name="Reshape_1009" type="Convert" version="opset1">
			<data destination_type="f32" />
			<rt_info>
				<attribute name="decompression" version="0" />
			</rt_info>
			<input>
				<port id="0" precision="FP16">
					<dim>1</dim>
					<dim>16</dim>
					<dim>1</dim>
					<dim>1</dim>
				</port>
			</input>
			<output>
				<port id="1" precision="FP32">
					<dim>1</dim>
					<dim>16</dim>
					<dim>1</dim>
					<dim>1</dim>
				</port>
			</output>
		</layer>
		<layer id="29" name="StatefulPartitionedCall/model_3/conv2d_156/BiasAdd" type="Add" version="opset1">
			<data auto_broadcast="numpy" />
			<input>
				<port id="0" precision="FP32">
					<dim>-1</dim>
					<dim>16</dim>
					<dim>-1</dim>
					<dim>-1</dim>
				</port>
				<port id="1" precision="FP32">
					<dim>1</dim>
					<dim>16</dim>
					<dim>1</dim>
					<dim>1</dim>
				</port>
			</input>
			<output>
				<port id="2" precision="FP32" names="StatefulPartitionedCall/model_3/conv2d_156/BiasAdd:0">
					<dim>-1</dim>
					<dim>16</dim>
					<dim>-1</dim>
					<dim>-1</dim>
				</port>
			</output>
		</layer>
		<layer id="30" name="StatefulPartitionedCall/model_3/conv2d_156/Relu" type="ReLU" version="opset1">
			<input>
				<port id="0" precision="FP32">
					<dim>-1</dim>
					<dim>16</dim>
					<dim>-1</dim>
					<dim>-1</dim>
				</port>
			</input>
			<output>
				<port id="1" precision="FP32" names="StatefulPartitionedCall/model_3/conv2d_156/Relu:0">
					<dim>-1</dim>
					<dim>16</dim>
					<dim>-1</dim>
					<dim>-1</dim>
				</port>
			</output>
		</layer>
		<layer id="31" name="StatefulPartitionedCall/model_3/conv2d_157/Conv2D/ReadVariableOp:0_compressed" type="Const" version="opset1">
			<data element_type="f16" shape="32, 16, 5, 5" offset="16096" size="25600" />
			<output>
				<port id="0" precision="FP16">
					<dim>32</dim>
					<dim>16</dim>
					<dim>5</dim>
					<dim>5</dim>
				</port>
			</output>
		</layer>
		<layer id="32" name="StatefulPartitionedCall/model_3/conv2d_157/Conv2D/ReadVariableOp:0" type="Convert" version="opset1">
			<data destination_type="f32" />
			<rt_info>
				<attribute name="decompression" version="0" />
			</rt_info>
			<input>
				<port id="0" precision="FP16">
					<dim>32</dim>
					<dim>16</dim>
					<dim>5</dim>
					<dim>5</dim>
				</port>
			</input>
			<output>
				<port id="1" precision="FP32" names="StatefulPartitionedCall/model_3/conv2d_157/Conv2D/ReadVariableOp:0">
					<dim>32</dim>
					<dim>16</dim>
					<dim>5</dim>
					<dim>5</dim>
				</port>
			</output>
		</layer>
		<layer id="33" name="StatefulPartitionedCall/model_3/conv2d_157/BiasAdd/WithoutBiases" type="Convolution" version="opset1">
			<data strides="1, 1" dilations="1, 1" pads_begin="0, 0" pads_end="0, 0" auto_pad="explicit" />
			<input>
				<port id="0" precision="FP32">
					<dim>-1</dim>
					<dim>16</dim>
					<dim>-1</dim>
					<dim>-1</dim>
				</port>
				<port id="1" precision="FP32">
					<dim>32</dim>
					<dim>16</dim>
					<dim>5</dim>
					<dim>5</dim>
				</port>
			</input>
			<output>
				<port id="2" precision="FP32">
					<dim>-1</dim>
					<dim>32</dim>
					<dim>-1</dim>
					<dim>-1</dim>
				</port>
			</output>
		</layer>
		<layer id="34" name="Reshape_1025_compressed" type="Const" version="opset1">
			<data element_type="f16" shape="1, 32, 1, 1" offset="41696" size="64" />
			<output>
				<port id="0" precision="FP16">
					<dim>1</dim>
					<dim>32</dim>
					<dim>1</dim>
					<dim>1</dim>
				</port>
			</output>
		</layer>
		<layer id="35" name="Reshape_1025" type="Convert" version="opset1">
			<data destination_type="f32" />
			<rt_info>
				<attribute name="decompression" version="0" />
			</rt_info>
			<input>
				<port id="0" precision="FP16">
					<dim>1</dim>
					<dim>32</dim>
					<dim>1</dim>
					<dim>1</dim>
				</port>
			</input>
			<output>
				<port id="1" precision="FP32">
					<dim>1</dim>
					<dim>32</dim>
					<dim>1</dim>
					<dim>1</dim>
				</port>
			</output>
		</layer>
		<layer id="36" name="StatefulPartitionedCall/model_3/conv2d_157/BiasAdd" type="Add" version="opset1">
			<data auto_broadcast="numpy" />
			<input>
				<port id="0" precision="FP32">
					<dim>-1</dim>
					<dim>32</dim>
					<dim>-1</dim>
					<dim>-1</dim>
				</port>
				<port id="1" precision="FP32">
					<dim>1</dim>
					<dim>32</dim>
					<dim>1</dim>
					<dim>1</dim>
				</port>
			</input>
			<output>
				<port id="2" precision="FP32" names="StatefulPartitionedCall/model_3/conv2d_157/BiasAdd:0">
					<dim>-1</dim>
					<dim>32</dim>
					<dim>-1</dim>
					<dim>-1</dim>
				</port>
			</output>
		</layer>
		<layer id="37" name="StatefulPartitionedCall/model_3/conv2d_157/Relu" type="ReLU" version="opset1">
			<input>
				<port id="0" precision="FP32">
					<dim>-1</dim>
					<dim>32</dim>
					<dim>-1</dim>
					<dim>-1</dim>
				</port>
			</input>
			<output>
				<port id="1" precision="FP32" names="StatefulPartitionedCall/model_3/conv2d_157/Relu:0">
					<dim>-1</dim>
					<dim>32</dim>
					<dim>-1</dim>
					<dim>-1</dim>
				</port>
			</output>
		</layer>
		<layer id="38" name="StatefulPartitionedCall/model_3/conv2d_transpose_90/conv2d_transpose/ReadVariableOp:0_compressed" type="Const" version="opset1">
			<data element_type="f16" shape="32, 16, 5, 5" offset="41760" size="25600" />
			<output>
				<port id="0" precision="FP16">
					<dim>32</dim>
					<dim>16</dim>
					<dim>5</dim>
					<dim>5</dim>
				</port>
			</output>
		</layer>
		<layer id="39" name="StatefulPartitionedCall/model_3/conv2d_transpose_90/conv2d_transpose/ReadVariableOp:0" type="Convert" version="opset1">
			<data destination_type="f32" />
			<rt_info>
				<attribute name="decompression" version="0" />
			</rt_info>
			<input>
				<port id="0" precision="FP16">
					<dim>32</dim>
					<dim>16</dim>
					<dim>5</dim>
					<dim>5</dim>
				</port>
			</input>
			<output>
				<port id="1" precision="FP32" names="StatefulPartitionedCall/model_3/conv2d_transpose_90/conv2d_transpose/ReadVariableOp:0">
					<dim>32</dim>
					<dim>16</dim>
					<dim>5</dim>
					<dim>5</dim>
				</port>
			</output>
		</layer>
		<layer id="40" name="ConvolutionBackpropData_1030" type="ConvolutionBackpropData" version="opset1">
			<data strides="1, 1" dilations="1, 1" pads_begin="0, 0" pads_end="0, 0" auto_pad="explicit" output_padding="0, 0" />
			<input>
				<port id="0" precision="FP32">
					<dim>-1</dim>
					<dim>32</dim>
					<dim>-1</dim>
					<dim>-1</dim>
				</port>
				<port id="1" precision="FP32">
					<dim>32</dim>
					<dim>16</dim>
					<dim>5</dim>
					<dim>5</dim>
				</port>
			</input>
			<output>
				<port id="2" precision="FP32">
					<dim>-1</dim>
					<dim>16</dim>
					<dim>-1</dim>
					<dim>-1</dim>
				</port>
			</output>
		</layer>
		<layer id="41" name="Reshape_1032_compressed" type="Const" version="opset1">
			<data element_type="f16" shape="1, 16, 1, 1" offset="67360" size="32" />
			<output>
				<port id="0" precision="FP16">
					<dim>1</dim>
					<dim>16</dim>
					<dim>1</dim>
					<dim>1</dim>
				</port>
			</output>
		</layer>
		<layer id="42" name="Reshape_1032" type="Convert" version="opset1">
			<data destination_type="f32" />
			<rt_info>
				<attribute name="decompression" version="0" />
			</rt_info>
			<input>
				<port id="0" precision="FP16">
					<dim>1</dim>
					<dim>16</dim>
					<dim>1</dim>
					<dim>1</dim>
				</port>
			</input>
			<output>
				<port id="1" precision="FP32">
					<dim>1</dim>
					<dim>16</dim>
					<dim>1</dim>
					<dim>1</dim>
				</port>
			</output>
		</layer>
		<layer id="43" name="StatefulPartitionedCall/model_3/conv2d_transpose_90/BiasAdd" type="Add" version="opset1">
			<data auto_broadcast="numpy" />
			<input>
				<port id="0" precision="FP32">
					<dim>-1</dim>
					<dim>16</dim>
					<dim>-1</dim>
					<dim>-1</dim>
				</port>
				<port id="1" precision="FP32">
					<dim>1</dim>
					<dim>16</dim>
					<dim>1</dim>
					<dim>1</dim>
				</port>
			</input>
			<output>
				<port id="2" precision="FP32" names="StatefulPartitionedCall/model_3/conv2d_transpose_90/BiasAdd:0">
					<dim>-1</dim>
					<dim>16</dim>
					<dim>-1</dim>
					<dim>-1</dim>
				</port>
			</output>
		</layer>
		<layer id="44" name="Constant_101664" type="Const" version="opset1">
			<data element_type="i64" shape="4" offset="67392" size="32" />
			<output>
				<port id="0" precision="I64">
					<dim>4</dim>
				</port>
			</output>
		</layer>
		<layer id="45" name="Constant_101663" type="Const" version="opset1">
			<data element_type="i64" shape="2" offset="67424" size="16" />
			<output>
				<port id="0" precision="I64">
					<dim>2</dim>
				</port>
			</output>
		</layer>
		<layer id="46" name="Shape__2726" type="ShapeOf" version="opset3">
			<data output_type="i64" />
			<input>
				<port id="0" precision="FP32">
					<dim>-1</dim>
					<dim>16</dim>
					<dim>-1</dim>
					<dim>-1</dim>
				</port>
			</input>
			<output>
				<port id="1" precision="I64" names="Shape__2726:0">
					<dim>4</dim>
				</port>
			</output>
		</layer>
		<layer id="47" name="Const__2936" type="Const" version="opset1">
			<data element_type="i32" shape="4" offset="67440" size="16" />
			<output>
				<port id="0" precision="I32" names="Const__2936">
					<dim>4</dim>
				</port>
			</output>
		</layer>
		<layer id="48" name="Constant_1056" type="Const" version="opset1">
			<data element_type="i64" shape="" offset="67456" size="8" />
			<output>
				<port id="0" precision="I64" />
			</output>
		</layer>
		<layer id="49" name="Gather__2729" type="Gather" version="opset8">
			<data batch_dims="0" />
			<input>
				<port id="0" precision="I64">
					<dim>4</dim>
				</port>
				<port id="1" precision="I32">
					<dim>4</dim>
				</port>
				<port id="2" precision="I64" />
			</input>
			<output>
				<port id="3" precision="I64" names="Shape__2106:0">
					<dim>4</dim>
				</port>
			</output>
		</layer>
		<layer id="50" name="const_starts__622" type="Const" version="opset1">
			<data element_type="i64" shape="1" offset="67464" size="8" />
			<output>
				<port id="0" precision="I64" names="const_starts__622">
					<dim>1</dim>
				</port>
			</output>
		</layer>
		<layer id="51" name="const_ends__373" type="Const" version="opset1">
			<data element_type="i64" shape="1" offset="67472" size="8" />
			<output>
				<port id="0" precision="I64" names="const_ends__373">
					<dim>1</dim>
				</port>
			</output>
		</layer>
		<layer id="52" name="Broadcast_1067" type="Const" version="opset1">
			<data element_type="i64" shape="1" offset="67464" size="8" />
			<output>
				<port id="0" precision="I64">
					<dim>1</dim>
				</port>
			</output>
		</layer>
		<layer id="53" name="Slice__2111" type="StridedSlice" version="opset1">
			<data begin_mask="0" end_mask="0" new_axis_mask="" shrink_axis_mask="" ellipsis_mask="" />
			<input>
				<port id="0" precision="I64">
					<dim>4</dim>
				</port>
				<port id="1" precision="I64">
					<dim>1</dim>
				</port>
				<port id="2" precision="I64">
					<dim>1</dim>
				</port>
				<port id="3" precision="I64">
					<dim>1</dim>
				</port>
			</input>
			<output>
				<port id="4" precision="I64" names="Slice__2111:0">
					<dim>1</dim>
				</port>
			</output>
		</layer>
		<layer id="54" name="Shape__2708" type="ShapeOf" version="opset3">
			<data output_type="i64" />
			<input>
				<port id="0" precision="FP32">
					<dim>-1</dim>
					<dim>32</dim>
					<dim>-1</dim>
					<dim>-1</dim>
				</port>
			</input>
			<output>
				<port id="1" precision="I64" names="Shape__2708:0">
					<dim>4</dim>
				</port>
			</output>
		</layer>
		<layer id="55" name="Constant_1072" type="Const" version="opset1">
			<data element_type="i64" shape="" offset="67456" size="8" />
			<output>
				<port id="0" precision="I64" />
			</output>
		</layer>
		<layer id="56" name="Gather__2713" type="Gather" version="opset8">
			<data batch_dims="0" />
			<input>
				<port id="0" precision="I64">
					<dim>4</dim>
				</port>
				<port id="1" precision="I32">
					<dim>4</dim>
				</port>
				<port id="2" precision="I64" />
			</input>
			<output>
				<port id="3" precision="I64" names="StatefulPartitionedCall/model_3/conv2d_transpose_90/Shape:0">
					<dim>4</dim>
				</port>
			</output>
		</layer>
		<layer id="57" name="StatefulPartitionedCall/model_3/conv2d_transpose_90/Shape__2080" type="Convert" version="opset1">
			<data destination_type="i32" />
			<input>
				<port id="0" precision="I64">
					<dim>4</dim>
				</port>
			</input>
			<output>
				<port id="1" precision="I32" names="StatefulPartitionedCall/model_3/conv2d_transpose_90/Shape__2080:0">
					<dim>4</dim>
				</port>
			</output>
		</layer>
		<layer id="58" name="const_axes__584" type="Const" version="opset1">
			<data element_type="i64" shape="1" offset="67456" size="8" />
			<output>
				<port id="0" precision="I64" names="const_axes__584">
					<dim>1</dim>
				</port>
			</output>
		</layer>
		<layer id="59" name="Broadcast_1097" type="Const" version="opset1">
			<data element_type="i64" shape="1" offset="67464" size="8" />
			<output>
				<port id="0" precision="I64">
					<dim>1</dim>
				</port>
			</output>
		</layer>
		<layer id="60" name="StatefulPartitionedCall/model_3/conv2d_transpose_90/strided_slice" type="StridedSlice" version="opset1">
			<data begin_mask="0" end_mask="0" new_axis_mask="" shrink_axis_mask="" ellipsis_mask="" />
			<input>
				<port id="0" precision="I32">
					<dim>4</dim>
				</port>
				<port id="1" precision="I64">
					<dim>1</dim>
				</port>
				<port id="2" precision="I64">
					<dim>1</dim>
				</port>
				<port id="3" precision="I64">
					<dim>1</dim>
				</port>
			</input>
			<output>
				<port id="4" precision="I32" names="StatefulPartitionedCall/model_3/conv2d_transpose_90/strided_slice:0">
					<dim>1</dim>
				</port>
			</output>
		</layer>
		<layer id="61" name="Broadcast_1087" type="Const" version="opset1">
			<data element_type="i64" shape="1" offset="67464" size="8" />
			<output>
				<port id="0" precision="I64">
					<dim>1</dim>
				</port>
			</output>
		</layer>
		<layer id="62" name="StatefulPartitionedCall/model_3/conv2d_transpose_90/strided_slice_1" type="StridedSlice" version="opset1">
			<data begin_mask="0" end_mask="0" new_axis_mask="" shrink_axis_mask="" ellipsis_mask="" />
			<input>
				<port id="0" precision="I32">
					<dim>4</dim>
				</port>
				<port id="1" precision="I64">
					<dim>1</dim>
				</port>
				<port id="2" precision="I64">
					<dim>1</dim>
				</port>
				<port id="3" precision="I64">
					<dim>1</dim>
				</port>
			</input>
			<output>
				<port id="4" precision="I32" names="StatefulPartitionedCall/model_3/conv2d_transpose_90/strided_slice_1:0">
					<dim>1</dim>
				</port>
			</output>
		</layer>
		<layer id="63" name="StatefulPartitionedCall/model_3/conv2d_transpose_90/strided_slice_1__2089" type="Squeeze" version="opset1">
			<input>
				<port id="0" precision="I32">
					<dim>1</dim>
				</port>
				<port id="1" precision="I64">
					<dim>1</dim>
				</port>
			</input>
			<output>
				<port id="2" precision="I32" names="StatefulPartitionedCall/model_3/conv2d_transpose_90/strided_slice_1__2089:0" />
			</output>
		</layer>
		<layer id="64" name="StatefulPartitionedCall/model_3/conv2d_transpose_95/add_1/y:0" type="Const" version="opset1">
			<data element_type="i32" shape="" offset="67480" size="4" />
			<output>
				<port id="0" precision="I32" names="StatefulPartitionedCall/model_3/conv2d_transpose_95/add_1/y:0" />
			</output>
		</layer>
		<layer id="65" name="StatefulPartitionedCall/model_3/conv2d_transpose_90/add" type="Add" version="opset1">
			<data auto_broadcast="numpy" />
			<input>
				<port id="0" precision="I32" />
				<port id="1" precision="I32" />
			</input>
			<output>
				<port id="2" precision="I32" names="StatefulPartitionedCall/model_3/conv2d_transpose_90/add:0" />
			</output>
		</layer>
		<layer id="66" name="StatefulPartitionedCall/model_3/conv2d_transpose_90/stack_Unsqueeze__2099" type="Unsqueeze" version="opset1">
			<input>
				<port id="0" precision="I32" />
				<port id="1" precision="I64">
					<dim>1</dim>
				</port>
			</input>
			<output>
				<port id="2" precision="I32" names="StatefulPartitionedCall/model_3/conv2d_transpose_90/stack_Unsqueeze__2099:0">
					<dim>1</dim>
				</port>
			</output>
		</layer>
		<layer id="67" name="const_ends__2245" type="Const" version="opset1">
			<data element_type="i64" shape="1" offset="67484" size="8" />
			<output>
				<port id="0" precision="I64" names="const_ends__2245">
					<dim>1</dim>
				</port>
			</output>
		</layer>
		<layer id="68" name="Broadcast_1077" type="Const" version="opset1">
			<data element_type="i64" shape="1" offset="67464" size="8" />
			<output>
				<port id="0" precision="I64">
					<dim>1</dim>
				</port>
			</output>
		</layer>
		<layer id="69" name="StatefulPartitionedCall/model_3/conv2d_transpose_90/strided_slice_2" type="StridedSlice" version="opset1">
			<data begin_mask="0" end_mask="0" new_axis_mask="" shrink_axis_mask="" ellipsis_mask="" />
			<input>
				<port id="0" precision="I32">
					<dim>4</dim>
				</port>
				<port id="1" precision="I64">
					<dim>1</dim>
				</port>
				<port id="2" precision="I64">
					<dim>1</dim>
				</port>
				<port id="3" precision="I64">
					<dim>1</dim>
				</port>
			</input>
			<output>
				<port id="4" precision="I32" names="StatefulPartitionedCall/model_3/conv2d_transpose_90/strided_slice_2:0">
					<dim>1</dim>
				</port>
			</output>
		</layer>
		<layer id="70" name="StatefulPartitionedCall/model_3/conv2d_transpose_90/strided_slice_2__2084" type="Squeeze" version="opset1">
			<input>
				<port id="0" precision="I32">
					<dim>1</dim>
				</port>
				<port id="1" precision="I64">
					<dim>1</dim>
				</port>
			</input>
			<output>
				<port id="2" precision="I32" names="StatefulPartitionedCall/model_3/conv2d_transpose_90/strided_slice_2__2084:0" />
			</output>
		</layer>
		<layer id="71" name="StatefulPartitionedCall/model_3/conv2d_transpose_90/add_1" type="Add" version="opset1">
			<data auto_broadcast="numpy" />
			<input>
				<port id="0" precision="I32" />
				<port id="1" precision="I32" />
			</input>
			<output>
				<port id="2" precision="I32" names="StatefulPartitionedCall/model_3/conv2d_transpose_90/add_1:0" />
			</output>
		</layer>
		<layer id="72" name="StatefulPartitionedCall/model_3/conv2d_transpose_90/stack_Unsqueeze__2101" type="Unsqueeze" version="opset1">
			<input>
				<port id="0" precision="I32" />
				<port id="1" precision="I64">
					<dim>1</dim>
				</port>
			</input>
			<output>
				<port id="2" precision="I32" names="StatefulPartitionedCall/model_3/conv2d_transpose_90/stack_Unsqueeze__2101:0">
					<dim>1</dim>
				</port>
			</output>
		</layer>
		<layer id="73" name="const_fold_opt__3100" type="Const" version="opset1">
			<data element_type="i32" shape="1" offset="67492" size="4" />
			<output>
				<port id="0" precision="I32" names="const_fold_opt__3100">
					<dim>1</dim>
				</port>
			</output>
		</layer>
		<layer id="74" name="StatefulPartitionedCall/model_3/conv2d_transpose_90/stack_Concat__2104" type="Concat" version="opset1">
			<data axis="0" />
			<input>
				<port id="0" precision="I32">
					<dim>1</dim>
				</port>
				<port id="1" precision="I32">
					<dim>1</dim>
				</port>
				<port id="2" precision="I32">
					<dim>1</dim>
				</port>
				<port id="3" precision="I32">
					<dim>1</dim>
				</port>
			</input>
			<output>
				<port id="4" precision="I32" names="StatefulPartitionedCall/model_3/conv2d_transpose_90/stack_Concat__2104:0">
					<dim>4</dim>
				</port>
			</output>
		</layer>
		<layer id="75" name="Cast__2105" type="Convert" version="opset1">
			<data destination_type="i64" />
			<input>
				<port id="0" precision="I32">
					<dim>4</dim>
				</port>
			</input>
			<output>
				<port id="1" precision="I64" names="Cast__2105:0">
					<dim>4</dim>
				</port>
			</output>
		</layer>
		<layer id="76" name="Broadcast_1598" type="Const" version="opset1">
			<data element_type="i64" shape="1" offset="67464" size="8" />
			<output>
				<port id="0" precision="I64">
					<dim>1</dim>
				</port>
			</output>
		</layer>
		<layer id="77" name="Slice__2119" type="StridedSlice" version="opset1">
			<data begin_mask="0" end_mask="0" new_axis_mask="" shrink_axis_mask="" ellipsis_mask="" />
			<input>
				<port id="0" precision="I64">
					<dim>4</dim>
				</port>
				<port id="1" precision="I64">
					<dim>1</dim>
				</port>
				<port id="2" precision="I64">
					<dim>1</dim>
				</port>
				<port id="3" precision="I64">
					<dim>1</dim>
				</port>
			</input>
			<output>
				<port id="4" precision="I64" names="Slice__2119:0">
					<dim>1</dim>
				</port>
			</output>
		</layer>
		<layer id="78" name="Sub__2124" type="Subtract" version="opset1">
			<data auto_broadcast="numpy" />
			<input>
				<port id="0" precision="I64">
					<dim>1</dim>
				</port>
				<port id="1" precision="I64">
					<dim>1</dim>
				</port>
			</input>
			<output>
				<port id="2" precision="I64" names="Sub__2124:0">
					<dim>1</dim>
				</port>
			</output>
		</layer>
		<layer id="79" name="Div__2127" type="Divide" version="opset1">
			<data auto_broadcast="numpy" m_pythondiv="true" />
			<input>
				<port id="0" precision="I64">
					<dim>1</dim>
				</port>
				<port id="1" precision="I64">
					<dim>1</dim>
				</port>
			</input>
			<output>
				<port id="2" precision="I64" names="Div__2127:0">
					<dim>1</dim>
				</port>
			</output>
		</layer>
		<layer id="80" name="Broadcast_1060" type="Const" version="opset1">
			<data element_type="i64" shape="1" offset="67464" size="8" />
			<output>
				<port id="0" precision="I64">
					<dim>1</dim>
				</port>
			</output>
		</layer>
		<layer id="81" name="Slice__2115" type="StridedSlice" version="opset1">
			<data begin_mask="0" end_mask="0" new_axis_mask="" shrink_axis_mask="" ellipsis_mask="" />
			<input>
				<port id="0" precision="I64">
					<dim>4</dim>
				</port>
				<port id="1" precision="I64">
					<dim>1</dim>
				</port>
				<port id="2" precision="I64">
					<dim>1</dim>
				</port>
				<port id="3" precision="I64">
					<dim>1</dim>
				</port>
			</input>
			<output>
				<port id="4" precision="I64" names="Slice__2115:0">
					<dim>1</dim>
				</port>
			</output>
		</layer>
		<layer id="82" name="Broadcast_1589" type="Const" version="opset1">
			<data element_type="i64" shape="1" offset="67464" size="8" />
			<output>
				<port id="0" precision="I64">
					<dim>1</dim>
				</port>
			</output>
		</layer>
		<layer id="83" name="Slice__2123" type="StridedSlice" version="opset1">
			<data begin_mask="0" end_mask="0" new_axis_mask="" shrink_axis_mask="" ellipsis_mask="" />
			<input>
				<port id="0" precision="I64">
					<dim>4</dim>
				</port>
				<port id="1" precision="I64">
					<dim>1</dim>
				</port>
				<port id="2" precision="I64">
					<dim>1</dim>
				</port>
				<port id="3" precision="I64">
					<dim>1</dim>
				</port>
			</input>
			<output>
				<port id="4" precision="I64" names="Slice__2123:0">
					<dim>1</dim>
				</port>
			</output>
		</layer>
		<layer id="84" name="Sub__2125" type="Subtract" version="opset1">
			<data auto_broadcast="numpy" />
			<input>
				<port id="0" precision="I64">
					<dim>1</dim>
				</port>
				<port id="1" precision="I64">
					<dim>1</dim>
				</port>
			</input>
			<output>
				<port id="2" precision="I64" names="Sub__2125:0">
					<dim>1</dim>
				</port>
			</output>
		</layer>
		<layer id="85" name="Div__2128" type="Divide" version="opset1">
			<data auto_broadcast="numpy" m_pythondiv="true" />
			<input>
				<port id="0" precision="I64">
					<dim>1</dim>
				</port>
				<port id="1" precision="I64">
					<dim>1</dim>
				</port>
			</input>
			<output>
				<port id="2" precision="I64" names="Div__2128:0">
					<dim>1</dim>
				</port>
			</output>
		</layer>
		<layer id="86" name="Concat__2131" type="Concat" version="opset1">
			<data axis="0" />
			<input>
				<port id="0" precision="I64">
					<dim>1</dim>
				</port>
				<port id="1" precision="I64">
					<dim>1</dim>
				</port>
			</input>
			<output>
				<port id="2" precision="I64" names="Concat__2131:0">
					<dim>2</dim>
				</port>
			</output>
		</layer>
		<layer id="87" name="Constant_101662" type="Const" version="opset1">
			<data element_type="i32" shape="1" offset="67496" size="4" />
			<output>
				<port id="0" precision="I32">
					<dim>1</dim>
				</port>
			</output>
		</layer>
		<layer id="88" name="ScatterUpdate_101665" type="ScatterUpdate" version="opset3">
			<input>
				<port id="0" precision="I64">
					<dim>4</dim>
				</port>
				<port id="1" precision="I64">
					<dim>2</dim>
				</port>
				<port id="2" precision="I64">
					<dim>2</dim>
				</port>
				<port id="3" precision="I32">
					<dim>1</dim>
				</port>
			</input>
			<output>
				<port id="4" precision="I64">
					<dim>4</dim>
				</port>
			</output>
		</layer>
		<layer id="89" name="Constant_101666" type="Const" version="opset1">
			<data element_type="i64" shape="4" offset="67392" size="32" />
			<output>
				<port id="0" precision="I64">
					<dim>4</dim>
				</port>
			</output>
		</layer>
		<layer id="90" name="Add__2129" type="Add" version="opset1">
			<data auto_broadcast="numpy" />
			<input>
				<port id="0" precision="I64">
					<dim>1</dim>
				</port>
				<port id="1" precision="I64">
					<dim>1</dim>
				</port>
			</input>
			<output>
				<port id="2" precision="I64" names="Add__2129:0">
					<dim>1</dim>
				</port>
			</output>
		</layer>
		<layer id="91" name="Add__2130" type="Add" version="opset1">
			<data auto_broadcast="numpy" />
			<input>
				<port id="0" precision="I64">
					<dim>1</dim>
				</port>
				<port id="1" precision="I64">
					<dim>1</dim>
				</port>
			</input>
			<output>
				<port id="2" precision="I64" names="Add__2130:0">
					<dim>1</dim>
				</port>
			</output>
		</layer>
		<layer id="92" name="Concat__2132" type="Concat" version="opset1">
			<data axis="0" />
			<input>
				<port id="0" precision="I64">
					<dim>1</dim>
				</port>
				<port id="1" precision="I64">
					<dim>1</dim>
				</port>
			</input>
			<output>
				<port id="2" precision="I64" names="Concat__2132:0">
					<dim>2</dim>
				</port>
			</output>
		</layer>
		<layer id="93" name="ScatterUpdate_101667" type="ScatterUpdate" version="opset3">
			<input>
				<port id="0" precision="I64">
					<dim>4</dim>
				</port>
				<port id="1" precision="I64">
					<dim>2</dim>
				</port>
				<port id="2" precision="I64">
					<dim>2</dim>
				</port>
				<port id="3" precision="I32">
					<dim>1</dim>
				</port>
			</input>
			<output>
				<port id="4" precision="I64">
					<dim>4</dim>
				</port>
			</output>
		</layer>
		<layer id="94" name="Constant_101670" type="Const" version="opset1">
			<data element_type="i64" shape="4" offset="67500" size="32" />
			<output>
				<port id="0" precision="I64">
					<dim>4</dim>
				</port>
			</output>
		</layer>
		<layer id="95" name="Slice__2134" type="StridedSlice" version="opset1">
			<data begin_mask="1, 1, 0, 0" end_mask="1, 1, 0, 0" new_axis_mask="" shrink_axis_mask="" ellipsis_mask="" />
			<input>
				<port id="0" precision="FP32">
					<dim>-1</dim>
					<dim>16</dim>
					<dim>-1</dim>
					<dim>-1</dim>
				</port>
				<port id="1" precision="I64">
					<dim>4</dim>
				</port>
				<port id="2" precision="I64">
					<dim>4</dim>
				</port>
				<port id="3" precision="I64">
					<dim>4</dim>
				</port>
			</input>
			<output>
				<port id="4" precision="FP32" names="Slice__2134:0">
					<dim>-1</dim>
					<dim>16</dim>
					<dim>-1</dim>
					<dim>-1</dim>
				</port>
			</output>
		</layer>
		<layer id="96" name="StatefulPartitionedCall/model_3/conv2d_transpose_90/Relu" type="ReLU" version="opset1">
			<input>
				<port id="0" precision="FP32">
					<dim>-1</dim>
					<dim>16</dim>
					<dim>-1</dim>
					<dim>-1</dim>
				</port>
			</input>
			<output>
				<port id="1" precision="FP32" names="StatefulPartitionedCall/model_3/conv2d_transpose_90/Relu:0">
					<dim>-1</dim>
					<dim>16</dim>
					<dim>-1</dim>
					<dim>-1</dim>
				</port>
			</output>
		</layer>
		<layer id="97" name="StatefulPartitionedCall/model_3/conv2d_transpose_91/conv2d_transpose/ReadVariableOp:0_compressed" type="Const" version="opset1">
			<data element_type="f16" shape="16, 8, 5, 5" offset="67532" size="6400" />
			<output>
				<port id="0" precision="FP16">
					<dim>16</dim>
					<dim>8</dim>
					<dim>5</dim>
					<dim>5</dim>
				</port>
			</output>
		</layer>
		<layer id="98" name="StatefulPartitionedCall/model_3/conv2d_transpose_91/conv2d_transpose/ReadVariableOp:0" type="Convert" version="opset1">
			<data destination_type="f32" />
			<rt_info>
				<attribute name="decompression" version="0" />
			</rt_info>
			<input>
				<port id="0" precision="FP16">
					<dim>16</dim>
					<dim>8</dim>
					<dim>5</dim>
					<dim>5</dim>
				</port>
			</input>
			<output>
				<port id="1" precision="FP32" names="StatefulPartitionedCall/model_3/conv2d_transpose_91/conv2d_transpose/ReadVariableOp:0">
					<dim>16</dim>
					<dim>8</dim>
					<dim>5</dim>
					<dim>5</dim>
				</port>
			</output>
		</layer>
		<layer id="99" name="ConvolutionBackpropData_10126" type="ConvolutionBackpropData" version="opset1">
			<data strides="1, 1" dilations="1, 1" pads_begin="0, 0" pads_end="0, 0" auto_pad="explicit" output_padding="0, 0" />
			<input>
				<port id="0" precision="FP32">
					<dim>-1</dim>
					<dim>16</dim>
					<dim>-1</dim>
					<dim>-1</dim>
				</port>
				<port id="1" precision="FP32">
					<dim>16</dim>
					<dim>8</dim>
					<dim>5</dim>
					<dim>5</dim>
				</port>
			</input>
			<output>
				<port id="2" precision="FP32">
					<dim>-1</dim>
					<dim>8</dim>
					<dim>-1</dim>
					<dim>-1</dim>
				</port>
			</output>
		</layer>
		<layer id="100" name="Reshape_10128_compressed" type="Const" version="opset1">
			<data element_type="f16" shape="1, 8, 1, 1" offset="73932" size="16" />
			<output>
				<port id="0" precision="FP16">
					<dim>1</dim>
					<dim>8</dim>
					<dim>1</dim>
					<dim>1</dim>
				</port>
			</output>
		</layer>
		<layer id="101" name="Reshape_10128" type="Convert" version="opset1">
			<data destination_type="f32" />
			<rt_info>
				<attribute name="decompression" version="0" />
			</rt_info>
			<input>
				<port id="0" precision="FP16">
					<dim>1</dim>
					<dim>8</dim>
					<dim>1</dim>
					<dim>1</dim>
				</port>
			</input>
			<output>
				<port id="1" precision="FP32">
					<dim>1</dim>
					<dim>8</dim>
					<dim>1</dim>
					<dim>1</dim>
				</port>
			</output>
		</layer>
		<layer id="102" name="StatefulPartitionedCall/model_3/conv2d_transpose_91/BiasAdd" type="Add" version="opset1">
			<data auto_broadcast="numpy" />
			<input>
				<port id="0" precision="FP32">
					<dim>-1</dim>
					<dim>8</dim>
					<dim>-1</dim>
					<dim>-1</dim>
				</port>
				<port id="1" precision="FP32">
					<dim>1</dim>
					<dim>8</dim>
					<dim>1</dim>
					<dim>1</dim>
				</port>
			</input>
			<output>
				<port id="2" precision="FP32" names="StatefulPartitionedCall/model_3/conv2d_transpose_91/BiasAdd:0">
					<dim>-1</dim>
					<dim>8</dim>
					<dim>-1</dim>
					<dim>-1</dim>
				</port>
			</output>
		</layer>
		<layer id="103" name="Constant_102465" type="Const" version="opset1">
			<data element_type="i64" shape="4" offset="67392" size="32" />
			<output>
				<port id="0" precision="I64">
					<dim>4</dim>
				</port>
			</output>
		</layer>
		<layer id="104" name="Constant_102464" type="Const" version="opset1">
			<data element_type="i64" shape="2" offset="67424" size="16" />
			<output>
				<port id="0" precision="I64">
					<dim>2</dim>
				</port>
			</output>
		</layer>
		<layer id="105" name="Shape__2858" type="ShapeOf" version="opset3">
			<data output_type="i64" />
			<input>
				<port id="0" precision="FP32">
					<dim>-1</dim>
					<dim>8</dim>
					<dim>-1</dim>
					<dim>-1</dim>
				</port>
			</input>
			<output>
				<port id="1" precision="I64" names="Shape__2858:0">
					<dim>4</dim>
				</port>
			</output>
		</layer>
		<layer id="106" name="Constant_10133" type="Const" version="opset1">
			<data element_type="i64" shape="" offset="67456" size="8" />
			<output>
				<port id="0" precision="I64" />
			</output>
		</layer>
		<layer id="107" name="Gather__2861" type="Gather" version="opset8">
			<data batch_dims="0" />
			<input>
				<port id="0" precision="I64">
					<dim>4</dim>
				</port>
				<port id="1" precision="I32">
					<dim>4</dim>
				</port>
				<port id="2" precision="I64" />
			</input>
			<output>
				<port id="3" precision="I64" names="Shape__2168:0">
					<dim>4</dim>
				</port>
			</output>
		</layer>
		<layer id="108" name="Broadcast_10144" type="Const" version="opset1">
			<data element_type="i64" shape="1" offset="67464" size="8" />
			<output>
				<port id="0" precision="I64">
					<dim>1</dim>
				</port>
			</output>
		</layer>
		<layer id="109" name="Slice__2173" type="StridedSlice" version="opset1">
			<data begin_mask="0" end_mask="0" new_axis_mask="" shrink_axis_mask="" ellipsis_mask="" />
			<input>
				<port id="0" precision="I64">
					<dim>4</dim>
				</port>
				<port id="1" precision="I64">
					<dim>1</dim>
				</port>
				<port id="2" precision="I64">
					<dim>1</dim>
				</port>
				<port id="3" precision="I64">
					<dim>1</dim>
				</port>
			</input>
			<output>
				<port id="4" precision="I64" names="Slice__2173:0">
					<dim>1</dim>
				</port>
			</output>
		</layer>
		<layer id="110" name="Shape__3012" type="ShapeOf" version="opset3">
			<data output_type="i64" />
			<input>
				<port id="0" precision="FP32">
					<dim>-1</dim>
					<dim>16</dim>
					<dim>-1</dim>
					<dim>-1</dim>
				</port>
			</input>
			<output>
				<port id="1" precision="I64" names="Shape__3012:0">
					<dim>4</dim>
				</port>
			</output>
		</layer>
		<layer id="111" name="Constant_10150" type="Const" version="opset1">
			<data element_type="i64" shape="" offset="67456" size="8" />
			<output>
				<port id="0" precision="I64" />
			</output>
		</layer>
		<layer id="112" name="Gather__3017" type="Gather" version="opset8">
			<data batch_dims="0" />
			<input>
				<port id="0" precision="I64">
					<dim>4</dim>
				</port>
				<port id="1" precision="I32">
					<dim>4</dim>
				</port>
				<port id="2" precision="I64" />
			</input>
			<output>
				<port id="3" precision="I64" names="StatefulPartitionedCall/model_3/conv2d_transpose_91/Shape:0">
					<dim>4</dim>
				</port>
			</output>
		</layer>
		<layer id="113" name="StatefulPartitionedCall/model_3/conv2d_transpose_91/Shape__2142" type="Convert" version="opset1">
			<data destination_type="i32" />
			<input>
				<port id="0" precision="I64">
					<dim>4</dim>
				</port>
			</input>
			<output>
				<port id="1" precision="I32" names="StatefulPartitionedCall/model_3/conv2d_transpose_91/Shape__2142:0">
					<dim>4</dim>
				</port>
			</output>
		</layer>
		<layer id="114" name="Broadcast_10175" type="Const" version="opset1">
			<data element_type="i64" shape="1" offset="67464" size="8" />
			<output>
				<port id="0" precision="I64">
					<dim>1</dim>
				</port>
			</output>
		</layer>
		<layer id="115" name="StatefulPartitionedCall/model_3/conv2d_transpose_91/strided_slice" type="StridedSlice" version="opset1">
			<data begin_mask="0" end_mask="0" new_axis_mask="" shrink_axis_mask="" ellipsis_mask="" />
			<input>
				<port id="0" precision="I32">
					<dim>4</dim>
				</port>
				<port id="1" precision="I64">
					<dim>1</dim>
				</port>
				<port id="2" precision="I64">
					<dim>1</dim>
				</port>
				<port id="3" precision="I64">
					<dim>1</dim>
				</port>
			</input>
			<output>
				<port id="4" precision="I32" names="StatefulPartitionedCall/model_3/conv2d_transpose_91/strided_slice:0">
					<dim>1</dim>
				</port>
			</output>
		</layer>
		<layer id="116" name="Broadcast_10165" type="Const" version="opset1">
			<data element_type="i64" shape="1" offset="67464" size="8" />
			<output>
				<port id="0" precision="I64">
					<dim>1</dim>
				</port>
			</output>
		</layer>
		<layer id="117" name="StatefulPartitionedCall/model_3/conv2d_transpose_91/strided_slice_1" type="StridedSlice" version="opset1">
			<data begin_mask="0" end_mask="0" new_axis_mask="" shrink_axis_mask="" ellipsis_mask="" />
			<input>
				<port id="0" precision="I32">
					<dim>4</dim>
				</port>
				<port id="1" precision="I64">
					<dim>1</dim>
				</port>
				<port id="2" precision="I64">
					<dim>1</dim>
				</port>
				<port id="3" precision="I64">
					<dim>1</dim>
				</port>
			</input>
			<output>
				<port id="4" precision="I32" names="StatefulPartitionedCall/model_3/conv2d_transpose_91/strided_slice_1:0">
					<dim>1</dim>
				</port>
			</output>
		</layer>
		<layer id="118" name="StatefulPartitionedCall/model_3/conv2d_transpose_91/strided_slice_1__2151" type="Squeeze" version="opset1">
			<input>
				<port id="0" precision="I32">
					<dim>1</dim>
				</port>
				<port id="1" precision="I64">
					<dim>1</dim>
				</port>
			</input>
			<output>
				<port id="2" precision="I32" names="StatefulPartitionedCall/model_3/conv2d_transpose_91/strided_slice_1__2151:0" />
			</output>
		</layer>
		<layer id="119" name="StatefulPartitionedCall/model_3/conv2d_transpose_91/add" type="Add" version="opset1">
			<data auto_broadcast="numpy" />
			<input>
				<port id="0" precision="I32" />
				<port id="1" precision="I32" />
			</input>
			<output>
				<port id="2" precision="I32" names="StatefulPartitionedCall/model_3/conv2d_transpose_91/add:0" />
			</output>
		</layer>
		<layer id="120" name="StatefulPartitionedCall/model_3/conv2d_transpose_91/stack_Unsqueeze__2161" type="Unsqueeze" version="opset1">
			<input>
				<port id="0" precision="I32" />
				<port id="1" precision="I64">
					<dim>1</dim>
				</port>
			</input>
			<output>
				<port id="2" precision="I32" names="StatefulPartitionedCall/model_3/conv2d_transpose_91/stack_Unsqueeze__2161:0">
					<dim>1</dim>
				</port>
			</output>
		</layer>
		<layer id="121" name="Broadcast_10155" type="Const" version="opset1">
			<data element_type="i64" shape="1" offset="67464" size="8" />
			<output>
				<port id="0" precision="I64">
					<dim>1</dim>
				</port>
			</output>
		</layer>
		<layer id="122" name="StatefulPartitionedCall/model_3/conv2d_transpose_91/strided_slice_2" type="StridedSlice" version="opset1">
			<data begin_mask="0" end_mask="0" new_axis_mask="" shrink_axis_mask="" ellipsis_mask="" />
			<input>
				<port id="0" precision="I32">
					<dim>4</dim>
				</port>
				<port id="1" precision="I64">
					<dim>1</dim>
				</port>
				<port id="2" precision="I64">
					<dim>1</dim>
				</port>
				<port id="3" precision="I64">
					<dim>1</dim>
				</port>
			</input>
			<output>
				<port id="4" precision="I32" names="StatefulPartitionedCall/model_3/conv2d_transpose_91/strided_slice_2:0">
					<dim>1</dim>
				</port>
			</output>
		</layer>
		<layer id="123" name="StatefulPartitionedCall/model_3/conv2d_transpose_91/strided_slice_2__2146" type="Squeeze" version="opset1">
			<input>
				<port id="0" precision="I32">
					<dim>1</dim>
				</port>
				<port id="1" precision="I64">
					<dim>1</dim>
				</port>
			</input>
			<output>
				<port id="2" precision="I32" names="StatefulPartitionedCall/model_3/conv2d_transpose_91/strided_slice_2__2146:0" />
			</output>
		</layer>
		<layer id="124" name="StatefulPartitionedCall/model_3/conv2d_transpose_91/add_1" type="Add" version="opset1">
			<data auto_broadcast="numpy" />
			<input>
				<port id="0" precision="I32" />
				<port id="1" precision="I32" />
			</input>
			<output>
				<port id="2" precision="I32" names="StatefulPartitionedCall/model_3/conv2d_transpose_91/add_1:0" />
			</output>
		</layer>
		<layer id="125" name="StatefulPartitionedCall/model_3/conv2d_transpose_91/stack_Unsqueeze__2163" type="Unsqueeze" version="opset1">
			<input>
				<port id="0" precision="I32" />
				<port id="1" precision="I64">
					<dim>1</dim>
				</port>
			</input>
			<output>
				<port id="2" precision="I32" names="StatefulPartitionedCall/model_3/conv2d_transpose_91/stack_Unsqueeze__2163:0">
					<dim>1</dim>
				</port>
			</output>
		</layer>
		<layer id="126" name="const_fold_opt__3078" type="Const" version="opset1">
			<data element_type="i32" shape="1" offset="73948" size="4" />
			<output>
				<port id="0" precision="I32" names="const_fold_opt__3078">
					<dim>1</dim>
				</port>
			</output>
		</layer>
		<layer id="127" name="StatefulPartitionedCall/model_3/conv2d_transpose_91/stack_Concat__2166" type="Concat" version="opset1">
			<data axis="0" />
			<input>
				<port id="0" precision="I32">
					<dim>1</dim>
				</port>
				<port id="1" precision="I32">
					<dim>1</dim>
				</port>
				<port id="2" precision="I32">
					<dim>1</dim>
				</port>
				<port id="3" precision="I32">
					<dim>1</dim>
				</port>
			</input>
			<output>
				<port id="4" precision="I32" names="StatefulPartitionedCall/model_3/conv2d_transpose_91/stack_Concat__2166:0">
					<dim>4</dim>
				</port>
			</output>
		</layer>
		<layer id="128" name="Cast__2167" type="Convert" version="opset1">
			<data destination_type="i64" />
			<input>
				<port id="0" precision="I32">
					<dim>4</dim>
				</port>
			</input>
			<output>
				<port id="1" precision="I64" names="Cast__2167:0">
					<dim>4</dim>
				</port>
			</output>
		</layer>
		<layer id="129" name="Broadcast_10194" type="Const" version="opset1">
			<data element_type="i64" shape="1" offset="67464" size="8" />
			<output>
				<port id="0" precision="I64">
					<dim>1</dim>
				</port>
			</output>
		</layer>
		<layer id="130" name="Slice__2181" type="StridedSlice" version="opset1">
			<data begin_mask="0" end_mask="0" new_axis_mask="" shrink_axis_mask="" ellipsis_mask="" />
			<input>
				<port id="0" precision="I64">
					<dim>4</dim>
				</port>
				<port id="1" precision="I64">
					<dim>1</dim>
				</port>
				<port id="2" precision="I64">
					<dim>1</dim>
				</port>
				<port id="3" precision="I64">
					<dim>1</dim>
				</port>
			</input>
			<output>
				<port id="4" precision="I64" names="Slice__2181:0">
					<dim>1</dim>
				</port>
			</output>
		</layer>
		<layer id="131" name="Sub__2186" type="Subtract" version="opset1">
			<data auto_broadcast="numpy" />
			<input>
				<port id="0" precision="I64">
					<dim>1</dim>
				</port>
				<port id="1" precision="I64">
					<dim>1</dim>
				</port>
			</input>
			<output>
				<port id="2" precision="I64" names="Sub__2186:0">
					<dim>1</dim>
				</port>
			</output>
		</layer>
		<layer id="132" name="Div__2189" type="Divide" version="opset1">
			<data auto_broadcast="numpy" m_pythondiv="true" />
			<input>
				<port id="0" precision="I64">
					<dim>1</dim>
				</port>
				<port id="1" precision="I64">
					<dim>1</dim>
				</port>
			</input>
			<output>
				<port id="2" precision="I64" names="Div__2189:0">
					<dim>1</dim>
				</port>
			</output>
		</layer>
		<layer id="133" name="Broadcast_10137" type="Const" version="opset1">
			<data element_type="i64" shape="1" offset="67464" size="8" />
			<output>
				<port id="0" precision="I64">
					<dim>1</dim>
				</port>
			</output>
		</layer>
		<layer id="134" name="Slice__2177" type="StridedSlice" version="opset1">
			<data begin_mask="0" end_mask="0" new_axis_mask="" shrink_axis_mask="" ellipsis_mask="" />
			<input>
				<port id="0" precision="I64">
					<dim>4</dim>
				</port>
				<port id="1" precision="I64">
					<dim>1</dim>
				</port>
				<port id="2" precision="I64">
					<dim>1</dim>
				</port>
				<port id="3" precision="I64">
					<dim>1</dim>
				</port>
			</input>
			<output>
				<port id="4" precision="I64" names="Slice__2177:0">
					<dim>1</dim>
				</port>
			</output>
		</layer>
		<layer id="135" name="Broadcast_10184" type="Const" version="opset1">
			<data element_type="i64" shape="1" offset="67464" size="8" />
			<output>
				<port id="0" precision="I64">
					<dim>1</dim>
				</port>
			</output>
		</layer>
		<layer id="136" name="Slice__2185" type="StridedSlice" version="opset1">
			<data begin_mask="0" end_mask="0" new_axis_mask="" shrink_axis_mask="" ellipsis_mask="" />
			<input>
				<port id="0" precision="I64">
					<dim>4</dim>
				</port>
				<port id="1" precision="I64">
					<dim>1</dim>
				</port>
				<port id="2" precision="I64">
					<dim>1</dim>
				</port>
				<port id="3" precision="I64">
					<dim>1</dim>
				</port>
			</input>
			<output>
				<port id="4" precision="I64" names="Slice__2185:0">
					<dim>1</dim>
				</port>
			</output>
		</layer>
		<layer id="137" name="Sub__2187" type="Subtract" version="opset1">
			<data auto_broadcast="numpy" />
			<input>
				<port id="0" precision="I64">
					<dim>1</dim>
				</port>
				<port id="1" precision="I64">
					<dim>1</dim>
				</port>
			</input>
			<output>
				<port id="2" precision="I64" names="Sub__2187:0">
					<dim>1</dim>
				</port>
			</output>
		</layer>
		<layer id="138" name="Div__2190" type="Divide" version="opset1">
			<data auto_broadcast="numpy" m_pythondiv="true" />
			<input>
				<port id="0" precision="I64">
					<dim>1</dim>
				</port>
				<port id="1" precision="I64">
					<dim>1</dim>
				</port>
			</input>
			<output>
				<port id="2" precision="I64" names="Div__2190:0">
					<dim>1</dim>
				</port>
			</output>
		</layer>
		<layer id="139" name="Concat__2193" type="Concat" version="opset1">
			<data axis="0" />
			<input>
				<port id="0" precision="I64">
					<dim>1</dim>
				</port>
				<port id="1" precision="I64">
					<dim>1</dim>
				</port>
			</input>
			<output>
				<port id="2" precision="I64" names="Concat__2193:0">
					<dim>2</dim>
				</port>
			</output>
		</layer>
		<layer id="140" name="Constant_102463" type="Const" version="opset1">
			<data element_type="i32" shape="1" offset="67496" size="4" />
			<output>
				<port id="0" precision="I32">
					<dim>1</dim>
				</port>
			</output>
		</layer>
		<layer id="141" name="ScatterUpdate_102466" type="ScatterUpdate" version="opset3">
			<input>
				<port id="0" precision="I64">
					<dim>4</dim>
				</port>
				<port id="1" precision="I64">
					<dim>2</dim>
				</port>
				<port id="2" precision="I64">
					<dim>2</dim>
				</port>
				<port id="3" precision="I32">
					<dim>1</dim>
				</port>
			</input>
			<output>
				<port id="4" precision="I64">
					<dim>4</dim>
				</port>
			</output>
		</layer>
		<layer id="142" name="Constant_102467" type="Const" version="opset1">
			<data element_type="i64" shape="4" offset="67392" size="32" />
			<output>
				<port id="0" precision="I64">
					<dim>4</dim>
				</port>
			</output>
		</layer>
		<layer id="143" name="Add__2191" type="Add" version="opset1">
			<data auto_broadcast="numpy" />
			<input>
				<port id="0" precision="I64">
					<dim>1</dim>
				</port>
				<port id="1" precision="I64">
					<dim>1</dim>
				</port>
			</input>
			<output>
				<port id="2" precision="I64" names="Add__2191:0">
					<dim>1</dim>
				</port>
			</output>
		</layer>
		<layer id="144" name="Add__2192" type="Add" version="opset1">
			<data auto_broadcast="numpy" />
			<input>
				<port id="0" precision="I64">
					<dim>1</dim>
				</port>
				<port id="1" precision="I64">
					<dim>1</dim>
				</port>
			</input>
			<output>
				<port id="2" precision="I64" names="Add__2192:0">
					<dim>1</dim>
				</port>
			</output>
		</layer>
		<layer id="145" name="Concat__2194" type="Concat" version="opset1">
			<data axis="0" />
			<input>
				<port id="0" precision="I64">
					<dim>1</dim>
				</port>
				<port id="1" precision="I64">
					<dim>1</dim>
				</port>
			</input>
			<output>
				<port id="2" precision="I64" names="Concat__2194:0">
					<dim>2</dim>
				</port>
			</output>
		</layer>
		<layer id="146" name="ScatterUpdate_102468" type="ScatterUpdate" version="opset3">
			<input>
				<port id="0" precision="I64">
					<dim>4</dim>
				</port>
				<port id="1" precision="I64">
					<dim>2</dim>
				</port>
				<port id="2" precision="I64">
					<dim>2</dim>
				</port>
				<port id="3" precision="I32">
					<dim>1</dim>
				</port>
			</input>
			<output>
				<port id="4" precision="I64">
					<dim>4</dim>
				</port>
			</output>
		</layer>
		<layer id="147" name="Constant_102471" type="Const" version="opset1">
			<data element_type="i64" shape="4" offset="67500" size="32" />
			<output>
				<port id="0" precision="I64">
					<dim>4</dim>
				</port>
			</output>
		</layer>
		<layer id="148" name="Slice__2196" type="StridedSlice" version="opset1">
			<data begin_mask="1, 1, 0, 0" end_mask="1, 1, 0, 0" new_axis_mask="" shrink_axis_mask="" ellipsis_mask="" />
			<input>
				<port id="0" precision="FP32">
					<dim>-1</dim>
					<dim>8</dim>
					<dim>-1</dim>
					<dim>-1</dim>
				</port>
				<port id="1" precision="I64">
					<dim>4</dim>
				</port>
				<port id="2" precision="I64">
					<dim>4</dim>
				</port>
				<port id="3" precision="I64">
					<dim>4</dim>
				</port>
			</input>
			<output>
				<port id="4" precision="FP32" names="Slice__2196:0">
					<dim>-1</dim>
					<dim>8</dim>
					<dim>-1</dim>
					<dim>-1</dim>
				</port>
			</output>
		</layer>
		<layer id="149" name="StatefulPartitionedCall/model_3/conv2d_transpose_91/Relu" type="ReLU" version="opset1">
			<input>
				<port id="0" precision="FP32">
					<dim>-1</dim>
					<dim>8</dim>
					<dim>-1</dim>
					<dim>-1</dim>
				</port>
			</input>
			<output>
				<port id="1" precision="FP32" names="StatefulPartitionedCall/model_3/conv2d_transpose_91/Relu:0">
					<dim>-1</dim>
					<dim>8</dim>
					<dim>-1</dim>
					<dim>-1</dim>
				</port>
			</output>
		</layer>
		<layer id="150" name="StatefulPartitionedCall/model_3/conv2d_transpose_92/conv2d_transpose/ReadVariableOp:0_compressed" type="Const" version="opset1">
			<data element_type="f16" shape="8, 3, 5, 5" offset="73952" size="1200" />
			<output>
				<port id="0" precision="FP16">
					<dim>8</dim>
					<dim>3</dim>
					<dim>5</dim>
					<dim>5</dim>
				</port>
			</output>
		</layer>
		<layer id="151" name="StatefulPartitionedCall/model_3/conv2d_transpose_92/conv2d_transpose/ReadVariableOp:0" type="Convert" version="opset1">
			<data destination_type="f32" />
			<rt_info>
				<attribute name="decompression" version="0" />
			</rt_info>
			<input>
				<port id="0" precision="FP16">
					<dim>8</dim>
					<dim>3</dim>
					<dim>5</dim>
					<dim>5</dim>
				</port>
			</input>
			<output>
				<port id="1" precision="FP32" names="StatefulPartitionedCall/model_3/conv2d_transpose_92/conv2d_transpose/ReadVariableOp:0">
					<dim>8</dim>
					<dim>3</dim>
					<dim>5</dim>
					<dim>5</dim>
				</port>
			</output>
		</layer>
		<layer id="152" name="ConvolutionBackpropData_10996" type="ConvolutionBackpropData" version="opset1">
			<data strides="1, 1" dilations="1, 1" pads_begin="0, 0" pads_end="0, 0" auto_pad="explicit" output_padding="0, 0" />
			<input>
				<port id="0" precision="FP32">
					<dim>-1</dim>
					<dim>8</dim>
					<dim>-1</dim>
					<dim>-1</dim>
				</port>
				<port id="1" precision="FP32">
					<dim>8</dim>
					<dim>3</dim>
					<dim>5</dim>
					<dim>5</dim>
				</port>
			</input>
			<output>
				<port id="2" precision="FP32">
					<dim>-1</dim>
					<dim>3</dim>
					<dim>-1</dim>
					<dim>-1</dim>
				</port>
			</output>
		</layer>
		<layer id="153" name="Reshape_10998_compressed" type="Const" version="opset1">
			<data element_type="f16" shape="1, 3, 1, 1" offset="75152" size="6" />
			<output>
				<port id="0" precision="FP16">
					<dim>1</dim>
					<dim>3</dim>
					<dim>1</dim>
					<dim>1</dim>
				</port>
			</output>
		</layer>
		<layer id="154" name="Reshape_10998" type="Convert" version="opset1">
			<data destination_type="f32" />
			<rt_info>
				<attribute name="decompression" version="0" />
			</rt_info>
			<input>
				<port id="0" precision="FP16">
					<dim>1</dim>
					<dim>3</dim>
					<dim>1</dim>
					<dim>1</dim>
				</port>
			</input>
			<output>
				<port id="1" precision="FP32">
					<dim>1</dim>
					<dim>3</dim>
					<dim>1</dim>
					<dim>1</dim>
				</port>
			</output>
		</layer>
		<layer id="155" name="StatefulPartitionedCall/model_3/conv2d_transpose_92/BiasAdd" type="Add" version="opset1">
			<data auto_broadcast="numpy" />
			<input>
				<port id="0" precision="FP32">
					<dim>-1</dim>
					<dim>3</dim>
					<dim>-1</dim>
					<dim>-1</dim>
				</port>
				<port id="1" precision="FP32">
					<dim>1</dim>
					<dim>3</dim>
					<dim>1</dim>
					<dim>1</dim>
				</port>
			</input>
			<output>
				<port id="2" precision="FP32" names="StatefulPartitionedCall/model_3/conv2d_transpose_92/BiasAdd:0">
					<dim>-1</dim>
					<dim>3</dim>
					<dim>-1</dim>
					<dim>-1</dim>
				</port>
			</output>
		</layer>
		<layer id="156" name="Constant_103266" type="Const" version="opset1">
			<data element_type="i64" shape="4" offset="67392" size="32" />
			<output>
				<port id="0" precision="I64">
					<dim>4</dim>
				</port>
			</output>
		</layer>
		<layer id="157" name="Constant_103265" type="Const" version="opset1">
			<data element_type="i64" shape="2" offset="67424" size="16" />
			<output>
				<port id="0" precision="I64">
					<dim>2</dim>
				</port>
			</output>
		</layer>
		<layer id="158" name="Shape__2854" type="ShapeOf" version="opset3">
			<data output_type="i64" />
			<input>
				<port id="0" precision="FP32">
					<dim>-1</dim>
					<dim>3</dim>
					<dim>-1</dim>
					<dim>-1</dim>
				</port>
			</input>
			<output>
				<port id="1" precision="I64" names="Shape__2854:0">
					<dim>4</dim>
				</port>
			</output>
		</layer>
		<layer id="159" name="Constant_11003" type="Const" version="opset1">
			<data element_type="i64" shape="" offset="67456" size="8" />
			<output>
				<port id="0" precision="I64" />
			</output>
		</layer>
		<layer id="160" name="Gather__2857" type="Gather" version="opset8">
			<data batch_dims="0" />
			<input>
				<port id="0" precision="I64">
					<dim>4</dim>
				</port>
				<port id="1" precision="I32">
					<dim>4</dim>
				</port>
				<port id="2" precision="I64" />
			</input>
			<output>
				<port id="3" precision="I64" names="Shape__2230:0">
					<dim>4</dim>
				</port>
			</output>
		</layer>
		<layer id="161" name="Broadcast_11014" type="Const" version="opset1">
			<data element_type="i64" shape="1" offset="67464" size="8" />
			<output>
				<port id="0" precision="I64">
					<dim>1</dim>
				</port>
			</output>
		</layer>
		<layer id="162" name="Slice__2235" type="StridedSlice" version="opset1">
			<data begin_mask="0" end_mask="0" new_axis_mask="" shrink_axis_mask="" ellipsis_mask="" />
			<input>
				<port id="0" precision="I64">
					<dim>4</dim>
				</port>
				<port id="1" precision="I64">
					<dim>1</dim>
				</port>
				<port id="2" precision="I64">
					<dim>1</dim>
				</port>
				<port id="3" precision="I64">
					<dim>1</dim>
				</port>
			</input>
			<output>
				<port id="4" precision="I64" names="Slice__2235:0">
					<dim>1</dim>
				</port>
			</output>
		</layer>
		<layer id="163" name="Shape__3036" type="ShapeOf" version="opset3">
			<data output_type="i64" />
			<input>
				<port id="0" precision="FP32">
					<dim>-1</dim>
					<dim>8</dim>
					<dim>-1</dim>
					<dim>-1</dim>
				</port>
			</input>
			<output>
				<port id="1" precision="I64" names="Shape__3036:0">
					<dim>4</dim>
				</port>
			</output>
		</layer>
		<layer id="164" name="Constant_11020" type="Const" version="opset1">
			<data element_type="i64" shape="" offset="67456" size="8" />
			<output>
				<port id="0" precision="I64" />
			</output>
		</layer>
		<layer id="165" name="Gather__3041" type="Gather" version="opset8">
			<data batch_dims="0" />
			<input>
				<port id="0" precision="I64">
					<dim>4</dim>
				</port>
				<port id="1" precision="I32">
					<dim>4</dim>
				</port>
				<port id="2" precision="I64" />
			</input>
			<output>
				<port id="3" precision="I64" names="StatefulPartitionedCall/model_3/conv2d_transpose_92/Shape:0">
					<dim>4</dim>
				</port>
			</output>
		</layer>
		<layer id="166" name="StatefulPartitionedCall/model_3/conv2d_transpose_92/Shape__2204" type="Convert" version="opset1">
			<data destination_type="i32" />
			<input>
				<port id="0" precision="I64">
					<dim>4</dim>
				</port>
			</input>
			<output>
				<port id="1" precision="I32" names="StatefulPartitionedCall/model_3/conv2d_transpose_92/Shape__2204:0">
					<dim>4</dim>
				</port>
			</output>
		</layer>
		<layer id="167" name="Broadcast_11045" type="Const" version="opset1">
			<data element_type="i64" shape="1" offset="67464" size="8" />
			<output>
				<port id="0" precision="I64">
					<dim>1</dim>
				</port>
			</output>
		</layer>
		<layer id="168" name="StatefulPartitionedCall/model_3/conv2d_transpose_92/strided_slice" type="StridedSlice" version="opset1">
			<data begin_mask="0" end_mask="0" new_axis_mask="" shrink_axis_mask="" ellipsis_mask="" />
			<input>
				<port id="0" precision="I32">
					<dim>4</dim>
				</port>
				<port id="1" precision="I64">
					<dim>1</dim>
				</port>
				<port id="2" precision="I64">
					<dim>1</dim>
				</port>
				<port id="3" precision="I64">
					<dim>1</dim>
				</port>
			</input>
			<output>
				<port id="4" precision="I32" names="StatefulPartitionedCall/model_3/conv2d_transpose_92/strided_slice:0">
					<dim>1</dim>
				</port>
			</output>
		</layer>
		<layer id="169" name="Broadcast_11035" type="Const" version="opset1">
			<data element_type="i64" shape="1" offset="67464" size="8" />
			<output>
				<port id="0" precision="I64">
					<dim>1</dim>
				</port>
			</output>
		</layer>
		<layer id="170" name="StatefulPartitionedCall/model_3/conv2d_transpose_92/strided_slice_1" type="StridedSlice" version="opset1">
			<data begin_mask="0" end_mask="0" new_axis_mask="" shrink_axis_mask="" ellipsis_mask="" />
			<input>
				<port id="0" precision="I32">
					<dim>4</dim>
				</port>
				<port id="1" precision="I64">
					<dim>1</dim>
				</port>
				<port id="2" precision="I64">
					<dim>1</dim>
				</port>
				<port id="3" precision="I64">
					<dim>1</dim>
				</port>
			</input>
			<output>
				<port id="4" precision="I32" names="StatefulPartitionedCall/model_3/conv2d_transpose_92/strided_slice_1:0">
					<dim>1</dim>
				</port>
			</output>
		</layer>
		<layer id="171" name="StatefulPartitionedCall/model_3/conv2d_transpose_92/strided_slice_1__2213" type="Squeeze" version="opset1">
			<input>
				<port id="0" precision="I32">
					<dim>1</dim>
				</port>
				<port id="1" precision="I64">
					<dim>1</dim>
				</port>
			</input>
			<output>
				<port id="2" precision="I32" names="StatefulPartitionedCall/model_3/conv2d_transpose_92/strided_slice_1__2213:0" />
			</output>
		</layer>
		<layer id="172" name="StatefulPartitionedCall/model_3/conv2d_transpose_92/add" type="Add" version="opset1">
			<data auto_broadcast="numpy" />
			<input>
				<port id="0" precision="I32" />
				<port id="1" precision="I32" />
			</input>
			<output>
				<port id="2" precision="I32" names="StatefulPartitionedCall/model_3/conv2d_transpose_92/add:0" />
			</output>
		</layer>
		<layer id="173" name="StatefulPartitionedCall/model_3/conv2d_transpose_92/stack_Unsqueeze__2223" type="Unsqueeze" version="opset1">
			<input>
				<port id="0" precision="I32" />
				<port id="1" precision="I64">
					<dim>1</dim>
				</port>
			</input>
			<output>
				<port id="2" precision="I32" names="StatefulPartitionedCall/model_3/conv2d_transpose_92/stack_Unsqueeze__2223:0">
					<dim>1</dim>
				</port>
			</output>
		</layer>
		<layer id="174" name="Broadcast_11025" type="Const" version="opset1">
			<data element_type="i64" shape="1" offset="67464" size="8" />
			<output>
				<port id="0" precision="I64">
					<dim>1</dim>
				</port>
			</output>
		</layer>
		<layer id="175" name="StatefulPartitionedCall/model_3/conv2d_transpose_92/strided_slice_2" type="StridedSlice" version="opset1">
			<data begin_mask="0" end_mask="0" new_axis_mask="" shrink_axis_mask="" ellipsis_mask="" />
			<input>
				<port id="0" precision="I32">
					<dim>4</dim>
				</port>
				<port id="1" precision="I64">
					<dim>1</dim>
				</port>
				<port id="2" precision="I64">
					<dim>1</dim>
				</port>
				<port id="3" precision="I64">
					<dim>1</dim>
				</port>
			</input>
			<output>
				<port id="4" precision="I32" names="StatefulPartitionedCall/model_3/conv2d_transpose_92/strided_slice_2:0">
					<dim>1</dim>
				</port>
			</output>
		</layer>
		<layer id="176" name="StatefulPartitionedCall/model_3/conv2d_transpose_92/strided_slice_2__2208" type="Squeeze" version="opset1">
			<input>
				<port id="0" precision="I32">
					<dim>1</dim>
				</port>
				<port id="1" precision="I64">
					<dim>1</dim>
				</port>
			</input>
			<output>
				<port id="2" precision="I32" names="StatefulPartitionedCall/model_3/conv2d_transpose_92/strided_slice_2__2208:0" />
			</output>
		</layer>
		<layer id="177" name="StatefulPartitionedCall/model_3/conv2d_transpose_92/add_1" type="Add" version="opset1">
			<data auto_broadcast="numpy" />
			<input>
				<port id="0" precision="I32" />
				<port id="1" precision="I32" />
			</input>
			<output>
				<port id="2" precision="I32" names="StatefulPartitionedCall/model_3/conv2d_transpose_92/add_1:0" />
			</output>
		</layer>
		<layer id="178" name="StatefulPartitionedCall/model_3/conv2d_transpose_92/stack_Unsqueeze__2225" type="Unsqueeze" version="opset1">
			<input>
				<port id="0" precision="I32" />
				<port id="1" precision="I64">
					<dim>1</dim>
				</port>
			</input>
			<output>
				<port id="2" precision="I32" names="StatefulPartitionedCall/model_3/conv2d_transpose_92/stack_Unsqueeze__2225:0">
					<dim>1</dim>
				</port>
			</output>
		</layer>
		<layer id="179" name="const_fold_opt__3088" type="Const" version="opset1">
			<data element_type="i32" shape="1" offset="75158" size="4" />
			<output>
				<port id="0" precision="I32" names="const_fold_opt__3088">
					<dim>1</dim>
				</port>
			</output>
		</layer>
		<layer id="180" name="StatefulPartitionedCall/model_3/conv2d_transpose_92/stack_Concat__2228" type="Concat" version="opset1">
			<data axis="0" />
			<input>
				<port id="0" precision="I32">
					<dim>1</dim>
				</port>
				<port id="1" precision="I32">
					<dim>1</dim>
				</port>
				<port id="2" precision="I32">
					<dim>1</dim>
				</port>
				<port id="3" precision="I32">
					<dim>1</dim>
				</port>
			</input>
			<output>
				<port id="4" precision="I32" names="StatefulPartitionedCall/model_3/conv2d_transpose_92/stack_Concat__2228:0">
					<dim>4</dim>
				</port>
			</output>
		</layer>
		<layer id="181" name="Cast__2229" type="Convert" version="opset1">
			<data destination_type="i64" />
			<input>
				<port id="0" precision="I32">
					<dim>4</dim>
				</port>
			</input>
			<output>
				<port id="1" precision="I64" names="Cast__2229:0">
					<dim>4</dim>
				</port>
			</output>
		</layer>
		<layer id="182" name="Broadcast_11064" type="Const" version="opset1">
			<data element_type="i64" shape="1" offset="67464" size="8" />
			<output>
				<port id="0" precision="I64">
					<dim>1</dim>
				</port>
			</output>
		</layer>
		<layer id="183" name="Slice__2243" type="StridedSlice" version="opset1">
			<data begin_mask="0" end_mask="0" new_axis_mask="" shrink_axis_mask="" ellipsis_mask="" />
			<input>
				<port id="0" precision="I64">
					<dim>4</dim>
				</port>
				<port id="1" precision="I64">
					<dim>1</dim>
				</port>
				<port id="2" precision="I64">
					<dim>1</dim>
				</port>
				<port id="3" precision="I64">
					<dim>1</dim>
				</port>
			</input>
			<output>
				<port id="4" precision="I64" names="Slice__2243:0">
					<dim>1</dim>
				</port>
			</output>
		</layer>
		<layer id="184" name="Sub__2248" type="Subtract" version="opset1">
			<data auto_broadcast="numpy" />
			<input>
				<port id="0" precision="I64">
					<dim>1</dim>
				</port>
				<port id="1" precision="I64">
					<dim>1</dim>
				</port>
			</input>
			<output>
				<port id="2" precision="I64" names="Sub__2248:0">
					<dim>1</dim>
				</port>
			</output>
		</layer>
		<layer id="185" name="Div__2251" type="Divide" version="opset1">
			<data auto_broadcast="numpy" m_pythondiv="true" />
			<input>
				<port id="0" precision="I64">
					<dim>1</dim>
				</port>
				<port id="1" precision="I64">
					<dim>1</dim>
				</port>
			</input>
			<output>
				<port id="2" precision="I64" names="Div__2251:0">
					<dim>1</dim>
				</port>
			</output>
		</layer>
		<layer id="186" name="Broadcast_11007" type="Const" version="opset1">
			<data element_type="i64" shape="1" offset="67464" size="8" />
			<output>
				<port id="0" precision="I64">
					<dim>1</dim>
				</port>
			</output>
		</layer>
		<layer id="187" name="Slice__2239" type="StridedSlice" version="opset1">
			<data begin_mask="0" end_mask="0" new_axis_mask="" shrink_axis_mask="" ellipsis_mask="" />
			<input>
				<port id="0" precision="I64">
					<dim>4</dim>
				</port>
				<port id="1" precision="I64">
					<dim>1</dim>
				</port>
				<port id="2" precision="I64">
					<dim>1</dim>
				</port>
				<port id="3" precision="I64">
					<dim>1</dim>
				</port>
			</input>
			<output>
				<port id="4" precision="I64" names="Slice__2239:0">
					<dim>1</dim>
				</port>
			</output>
		</layer>
		<layer id="188" name="Broadcast_11054" type="Const" version="opset1">
			<data element_type="i64" shape="1" offset="67464" size="8" />
			<output>
				<port id="0" precision="I64">
					<dim>1</dim>
				</port>
			</output>
		</layer>
		<layer id="189" name="Slice__2247" type="StridedSlice" version="opset1">
			<data begin_mask="0" end_mask="0" new_axis_mask="" shrink_axis_mask="" ellipsis_mask="" />
			<input>
				<port id="0" precision="I64">
					<dim>4</dim>
				</port>
				<port id="1" precision="I64">
					<dim>1</dim>
				</port>
				<port id="2" precision="I64">
					<dim>1</dim>
				</port>
				<port id="3" precision="I64">
					<dim>1</dim>
				</port>
			</input>
			<output>
				<port id="4" precision="I64" names="Slice__2247:0">
					<dim>1</dim>
				</port>
			</output>
		</layer>
		<layer id="190" name="Sub__2249" type="Subtract" version="opset1">
			<data auto_broadcast="numpy" />
			<input>
				<port id="0" precision="I64">
					<dim>1</dim>
				</port>
				<port id="1" precision="I64">
					<dim>1</dim>
				</port>
			</input>
			<output>
				<port id="2" precision="I64" names="Sub__2249:0">
					<dim>1</dim>
				</port>
			</output>
		</layer>
		<layer id="191" name="Div__2252" type="Divide" version="opset1">
			<data auto_broadcast="numpy" m_pythondiv="true" />
			<input>
				<port id="0" precision="I64">
					<dim>1</dim>
				</port>
				<port id="1" precision="I64">
					<dim>1</dim>
				</port>
			</input>
			<output>
				<port id="2" precision="I64" names="Div__2252:0">
					<dim>1</dim>
				</port>
			</output>
		</layer>
		<layer id="192" name="Concat__2255" type="Concat" version="opset1">
			<data axis="0" />
			<input>
				<port id="0" precision="I64">
					<dim>1</dim>
				</port>
				<port id="1" precision="I64">
					<dim>1</dim>
				</port>
			</input>
			<output>
				<port id="2" precision="I64" names="Concat__2255:0">
					<dim>2</dim>
				</port>
			</output>
		</layer>
		<layer id="193" name="Constant_103264" type="Const" version="opset1">
			<data element_type="i32" shape="1" offset="67496" size="4" />
			<output>
				<port id="0" precision="I32">
					<dim>1</dim>
				</port>
			</output>
		</layer>
		<layer id="194" name="ScatterUpdate_103267" type="ScatterUpdate" version="opset3">
			<input>
				<port id="0" precision="I64">
					<dim>4</dim>
				</port>
				<port id="1" precision="I64">
					<dim>2</dim>
				</port>
				<port id="2" precision="I64">
					<dim>2</dim>
				</port>
				<port id="3" precision="I32">
					<dim>1</dim>
				</port>
			</input>
			<output>
				<port id="4" precision="I64">
					<dim>4</dim>
				</port>
			</output>
		</layer>
		<layer id="195" name="Constant_103268" type="Const" version="opset1">
			<data element_type="i64" shape="4" offset="67392" size="32" />
			<output>
				<port id="0" precision="I64">
					<dim>4</dim>
				</port>
			</output>
		</layer>
		<layer id="196" name="Add__2253" type="Add" version="opset1">
			<data auto_broadcast="numpy" />
			<input>
				<port id="0" precision="I64">
					<dim>1</dim>
				</port>
				<port id="1" precision="I64">
					<dim>1</dim>
				</port>
			</input>
			<output>
				<port id="2" precision="I64" names="Add__2253:0">
					<dim>1</dim>
				</port>
			</output>
		</layer>
		<layer id="197" name="Add__2254" type="Add" version="opset1">
			<data auto_broadcast="numpy" />
			<input>
				<port id="0" precision="I64">
					<dim>1</dim>
				</port>
				<port id="1" precision="I64">
					<dim>1</dim>
				</port>
			</input>
			<output>
				<port id="2" precision="I64" names="Add__2254:0">
					<dim>1</dim>
				</port>
			</output>
		</layer>
		<layer id="198" name="Concat__2256" type="Concat" version="opset1">
			<data axis="0" />
			<input>
				<port id="0" precision="I64">
					<dim>1</dim>
				</port>
				<port id="1" precision="I64">
					<dim>1</dim>
				</port>
			</input>
			<output>
				<port id="2" precision="I64" names="Concat__2256:0">
					<dim>2</dim>
				</port>
			</output>
		</layer>
		<layer id="199" name="ScatterUpdate_103269" type="ScatterUpdate" version="opset3">
			<input>
				<port id="0" precision="I64">
					<dim>4</dim>
				</port>
				<port id="1" precision="I64">
					<dim>2</dim>
				</port>
				<port id="2" precision="I64">
					<dim>2</dim>
				</port>
				<port id="3" precision="I32">
					<dim>1</dim>
				</port>
			</input>
			<output>
				<port id="4" precision="I64">
					<dim>4</dim>
				</port>
			</output>
		</layer>
		<layer id="200" name="Constant_103272" type="Const" version="opset1">
			<data element_type="i64" shape="4" offset="67500" size="32" />
			<output>
				<port id="0" precision="I64">
					<dim>4</dim>
				</port>
			</output>
		</layer>
		<layer id="201" name="Slice__2258" type="StridedSlice" version="opset1">
			<data begin_mask="1, 1, 0, 0" end_mask="1, 1, 0, 0" new_axis_mask="" shrink_axis_mask="" ellipsis_mask="" />
			<input>
				<port id="0" precision="FP32">
					<dim>-1</dim>
					<dim>3</dim>
					<dim>-1</dim>
					<dim>-1</dim>
				</port>
				<port id="1" precision="I64">
					<dim>4</dim>
				</port>
				<port id="2" precision="I64">
					<dim>4</dim>
				</port>
				<port id="3" precision="I64">
					<dim>4</dim>
				</port>
			</input>
			<output>
				<port id="4" precision="FP32" names="Slice__2258:0">
					<dim>-1</dim>
					<dim>3</dim>
					<dim>-1</dim>
					<dim>-1</dim>
				</port>
			</output>
		</layer>
		<layer id="202" name="StatefulPartitionedCall/model_3/conv2d_transpose_92/Relu" type="ReLU" version="opset1">
			<input>
				<port id="0" precision="FP32">
					<dim>-1</dim>
					<dim>3</dim>
					<dim>-1</dim>
					<dim>-1</dim>
				</port>
			</input>
			<output>
				<port id="1" precision="FP32" names="StatefulPartitionedCall/model_3/conv2d_transpose_92/Relu:0">
					<dim>-1</dim>
					<dim>3</dim>
					<dim>-1</dim>
					<dim>-1</dim>
				</port>
			</output>
		</layer>
		<layer id="203" name="StatefulPartitionedCall/model_3/conv2d_158/Conv2D/ReadVariableOp:0_compressed" type="Const" version="opset1">
			<data element_type="f16" shape="32, 32, 3, 3" offset="75162" size="18432" />
			<output>
				<port id="0" precision="FP16">
					<dim>32</dim>
					<dim>32</dim>
					<dim>3</dim>
					<dim>3</dim>
				</port>
			</output>
		</layer>
		<layer id="204" name="StatefulPartitionedCall/model_3/conv2d_158/Conv2D/ReadVariableOp:0" type="Convert" version="opset1">
			<data destination_type="f32" />
			<rt_info>
				<attribute name="decompression" version="0" />
			</rt_info>
			<input>
				<port id="0" precision="FP16">
					<dim>32</dim>
					<dim>32</dim>
					<dim>3</dim>
					<dim>3</dim>
				</port>
			</input>
			<output>
				<port id="1" precision="FP32" names="StatefulPartitionedCall/model_3/conv2d_158/Conv2D/ReadVariableOp:0">
					<dim>32</dim>
					<dim>32</dim>
					<dim>3</dim>
					<dim>3</dim>
				</port>
			</output>
		</layer>
		<layer id="205" name="StatefulPartitionedCall/model_3/conv2d_158/BiasAdd/WithoutBiases" type="Convolution" version="opset1">
			<data strides="1, 1" dilations="1, 1" pads_begin="0, 0" pads_end="0, 0" auto_pad="same_upper" />
			<input>
				<port id="0" precision="FP32">
					<dim>-1</dim>
					<dim>32</dim>
					<dim>-1</dim>
					<dim>-1</dim>
				</port>
				<port id="1" precision="FP32">
					<dim>32</dim>
					<dim>32</dim>
					<dim>3</dim>
					<dim>3</dim>
				</port>
			</input>
			<output>
				<port id="2" precision="FP32">
					<dim>-1</dim>
					<dim>32</dim>
					<dim>-1</dim>
					<dim>-1</dim>
				</port>
			</output>
		</layer>
		<layer id="206" name="Reshape_203_compressed" type="Const" version="opset1">
			<data element_type="f16" shape="1, 32, 1, 1" offset="93594" size="64" />
			<output>
				<port id="0" precision="FP16">
					<dim>1</dim>
					<dim>32</dim>
					<dim>1</dim>
					<dim>1</dim>
				</port>
			</output>
		</layer>
		<layer id="207" name="Reshape_203" type="Convert" version="opset1">
			<data destination_type="f32" />
			<rt_info>
				<attribute name="decompression" version="0" />
			</rt_info>
			<input>
				<port id="0" precision="FP16">
					<dim>1</dim>
					<dim>32</dim>
					<dim>1</dim>
					<dim>1</dim>
				</port>
			</input>
			<output>
				<port id="1" precision="FP32">
					<dim>1</dim>
					<dim>32</dim>
					<dim>1</dim>
					<dim>1</dim>
				</port>
			</output>
		</layer>
		<layer id="208" name="StatefulPartitionedCall/model_3/conv2d_158/BiasAdd" type="Add" version="opset1">
			<data auto_broadcast="numpy" />
			<input>
				<port id="0" precision="FP32">
					<dim>-1</dim>
					<dim>32</dim>
					<dim>-1</dim>
					<dim>-1</dim>
				</port>
				<port id="1" precision="FP32">
					<dim>1</dim>
					<dim>32</dim>
					<dim>1</dim>
					<dim>1</dim>
				</port>
			</input>
			<output>
				<port id="2" precision="FP32" names="StatefulPartitionedCall/model_3/conv2d_158/BiasAdd:0">
					<dim>-1</dim>
					<dim>32</dim>
					<dim>-1</dim>
					<dim>-1</dim>
				</port>
			</output>
		</layer>
		<layer id="209" name="StatefulPartitionedCall/model_3/conv2d_158/Relu" type="ReLU" version="opset1">
			<input>
				<port id="0" precision="FP32">
					<dim>-1</dim>
					<dim>32</dim>
					<dim>-1</dim>
					<dim>-1</dim>
				</port>
			</input>
			<output>
				<port id="1" precision="FP32" names="StatefulPartitionedCall/model_3/conv2d_158/Relu:0">
					<dim>-1</dim>
					<dim>32</dim>
					<dim>-1</dim>
					<dim>-1</dim>
				</port>
			</output>
		</layer>
		<layer id="210" name="StatefulPartitionedCall/model_3/conv2d_159/Conv2D/ReadVariableOp:0_compressed" type="Const" version="opset1">
			<data element_type="f16" shape="8, 32, 3, 3" offset="93658" size="4608" />
			<output>
				<port id="0" precision="FP16">
					<dim>8</dim>
					<dim>32</dim>
					<dim>3</dim>
					<dim>3</dim>
				</port>
			</output>
		</layer>
		<layer id="211" name="StatefulPartitionedCall/model_3/conv2d_159/Conv2D/ReadVariableOp:0" type="Convert" version="opset1">
			<data destination_type="f32" />
			<rt_info>
				<attribute name="decompression" version="0" />
			</rt_info>
			<input>
				<port id="0" precision="FP16">
					<dim>8</dim>
					<dim>32</dim>
					<dim>3</dim>
					<dim>3</dim>
				</port>
			</input>
			<output>
				<port id="1" precision="FP32" names="StatefulPartitionedCall/model_3/conv2d_159/Conv2D/ReadVariableOp:0">
					<dim>8</dim>
					<dim>32</dim>
					<dim>3</dim>
					<dim>3</dim>
				</port>
			</output>
		</layer>
		<layer id="212" name="StatefulPartitionedCall/model_3/conv2d_159/BiasAdd/WithoutBiases" type="Convolution" version="opset1">
			<data strides="1, 1" dilations="1, 1" pads_begin="0, 0" pads_end="0, 0" auto_pad="same_upper" />
			<input>
				<port id="0" precision="FP32">
					<dim>-1</dim>
					<dim>32</dim>
					<dim>-1</dim>
					<dim>-1</dim>
				</port>
				<port id="1" precision="FP32">
					<dim>8</dim>
					<dim>32</dim>
					<dim>3</dim>
					<dim>3</dim>
				</port>
			</input>
			<output>
				<port id="2" precision="FP32">
					<dim>-1</dim>
					<dim>8</dim>
					<dim>-1</dim>
					<dim>-1</dim>
				</port>
			</output>
		</layer>
		<layer id="213" name="Reshape_907_compressed" type="Const" version="opset1">
			<data element_type="f16" shape="1, 8, 1, 1" offset="98266" size="16" />
			<output>
				<port id="0" precision="FP16">
					<dim>1</dim>
					<dim>8</dim>
					<dim>1</dim>
					<dim>1</dim>
				</port>
			</output>
		</layer>
		<layer id="214" name="Reshape_907" type="Convert" version="opset1">
			<data destination_type="f32" />
			<rt_info>
				<attribute name="decompression" version="0" />
			</rt_info>
			<input>
				<port id="0" precision="FP16">
					<dim>1</dim>
					<dim>8</dim>
					<dim>1</dim>
					<dim>1</dim>
				</port>
			</input>
			<output>
				<port id="1" precision="FP32">
					<dim>1</dim>
					<dim>8</dim>
					<dim>1</dim>
					<dim>1</dim>
				</port>
			</output>
		</layer>
		<layer id="215" name="StatefulPartitionedCall/model_3/conv2d_159/BiasAdd" type="Add" version="opset1">
			<data auto_broadcast="numpy" />
			<input>
				<port id="0" precision="FP32">
					<dim>-1</dim>
					<dim>8</dim>
					<dim>-1</dim>
					<dim>-1</dim>
				</port>
				<port id="1" precision="FP32">
					<dim>1</dim>
					<dim>8</dim>
					<dim>1</dim>
					<dim>1</dim>
				</port>
			</input>
			<output>
				<port id="2" precision="FP32" names="StatefulPartitionedCall/model_3/conv2d_159/BiasAdd:0">
					<dim>-1</dim>
					<dim>8</dim>
					<dim>-1</dim>
					<dim>-1</dim>
				</port>
			</output>
		</layer>
		<layer id="216" name="StatefulPartitionedCall/model_3/conv2d_159/Relu" type="ReLU" version="opset1">
			<input>
				<port id="0" precision="FP32">
					<dim>-1</dim>
					<dim>8</dim>
					<dim>-1</dim>
					<dim>-1</dim>
				</port>
			</input>
			<output>
				<port id="1" precision="FP32" names="StatefulPartitionedCall/model_3/conv2d_159/Relu:0">
					<dim>-1</dim>
					<dim>8</dim>
					<dim>-1</dim>
					<dim>-1</dim>
				</port>
			</output>
		</layer>
		<layer id="217" name="StatefulPartitionedCall/model_3/conv2d_160/Conv2D/ReadVariableOp:0_compressed" type="Const" version="opset1">
			<data element_type="f16" shape="8, 8, 5, 5" offset="98282" size="3200" />
			<output>
				<port id="0" precision="FP16">
					<dim>8</dim>
					<dim>8</dim>
					<dim>5</dim>
					<dim>5</dim>
				</port>
			</output>
		</layer>
		<layer id="218" name="StatefulPartitionedCall/model_3/conv2d_160/Conv2D/ReadVariableOp:0" type="Convert" version="opset1">
			<data destination_type="f32" />
			<rt_info>
				<attribute name="decompression" version="0" />
			</rt_info>
			<input>
				<port id="0" precision="FP16">
					<dim>8</dim>
					<dim>8</dim>
					<dim>5</dim>
					<dim>5</dim>
				</port>
			</input>
			<output>
				<port id="1" precision="FP32" names="StatefulPartitionedCall/model_3/conv2d_160/Conv2D/ReadVariableOp:0">
					<dim>8</dim>
					<dim>8</dim>
					<dim>5</dim>
					<dim>5</dim>
				</port>
			</output>
		</layer>
		<layer id="219" name="StatefulPartitionedCall/model_3/conv2d_160/BiasAdd/WithoutBiases" type="Convolution" version="opset1">
			<data strides="1, 1" dilations="1, 1" pads_begin="0, 0" pads_end="0, 0" auto_pad="explicit" />
			<input>
				<port id="0" precision="FP32">
					<dim>-1</dim>
					<dim>8</dim>
					<dim>-1</dim>
					<dim>-1</dim>
				</port>
				<port id="1" precision="FP32">
					<dim>8</dim>
					<dim>8</dim>
					<dim>5</dim>
					<dim>5</dim>
				</port>
			</input>
			<output>
				<port id="2" precision="FP32">
					<dim>-1</dim>
					<dim>8</dim>
					<dim>-1</dim>
					<dim>-1</dim>
				</port>
			</output>
		</layer>
		<layer id="220" name="Reshape_923_compressed" type="Const" version="opset1">
			<data element_type="f16" shape="1, 8, 1, 1" offset="101482" size="16" />
			<output>
				<port id="0" precision="FP16">
					<dim>1</dim>
					<dim>8</dim>
					<dim>1</dim>
					<dim>1</dim>
				</port>
			</output>
		</layer>
		<layer id="221" name="Reshape_923" type="Convert" version="opset1">
			<data destination_type="f32" />
			<rt_info>
				<attribute name="decompression" version="0" />
			</rt_info>
			<input>
				<port id="0" precision="FP16">
					<dim>1</dim>
					<dim>8</dim>
					<dim>1</dim>
					<dim>1</dim>
				</port>
			</input>
			<output>
				<port id="1" precision="FP32">
					<dim>1</dim>
					<dim>8</dim>
					<dim>1</dim>
					<dim>1</dim>
				</port>
			</output>
		</layer>
		<layer id="222" name="StatefulPartitionedCall/model_3/conv2d_160/BiasAdd" type="Add" version="opset1">
			<data auto_broadcast="numpy" />
			<input>
				<port id="0" precision="FP32">
					<dim>-1</dim>
					<dim>8</dim>
					<dim>-1</dim>
					<dim>-1</dim>
				</port>
				<port id="1" precision="FP32">
					<dim>1</dim>
					<dim>8</dim>
					<dim>1</dim>
					<dim>1</dim>
				</port>
			</input>
			<output>
				<port id="2" precision="FP32" names="StatefulPartitionedCall/model_3/conv2d_160/BiasAdd:0">
					<dim>-1</dim>
					<dim>8</dim>
					<dim>-1</dim>
					<dim>-1</dim>
				</port>
			</output>
		</layer>
		<layer id="223" name="StatefulPartitionedCall/model_3/conv2d_160/Relu" type="ReLU" version="opset1">
			<input>
				<port id="0" precision="FP32">
					<dim>-1</dim>
					<dim>8</dim>
					<dim>-1</dim>
					<dim>-1</dim>
				</port>
			</input>
			<output>
				<port id="1" precision="FP32" names="StatefulPartitionedCall/model_3/conv2d_160/Relu:0">
					<dim>-1</dim>
					<dim>8</dim>
					<dim>-1</dim>
					<dim>-1</dim>
				</port>
			</output>
		</layer>
		<layer id="224" name="StatefulPartitionedCall/model_3/conv2d_161/Conv2D/ReadVariableOp:0_compressed" type="Const" version="opset1">
			<data element_type="f16" shape="16, 8, 5, 5" offset="101498" size="6400" />
			<output>
				<port id="0" precision="FP16">
					<dim>16</dim>
					<dim>8</dim>
					<dim>5</dim>
					<dim>5</dim>
				</port>
			</output>
		</layer>
		<layer id="225" name="StatefulPartitionedCall/model_3/conv2d_161/Conv2D/ReadVariableOp:0" type="Convert" version="opset1">
			<data destination_type="f32" />
			<rt_info>
				<attribute name="decompression" version="0" />
			</rt_info>
			<input>
				<port id="0" precision="FP16">
					<dim>16</dim>
					<dim>8</dim>
					<dim>5</dim>
					<dim>5</dim>
				</port>
			</input>
			<output>
				<port id="1" precision="FP32" names="StatefulPartitionedCall/model_3/conv2d_161/Conv2D/ReadVariableOp:0">
					<dim>16</dim>
					<dim>8</dim>
					<dim>5</dim>
					<dim>5</dim>
				</port>
			</output>
		</layer>
		<layer id="226" name="StatefulPartitionedCall/model_3/conv2d_161/BiasAdd/WithoutBiases" type="Convolution" version="opset1">
			<data strides="1, 1" dilations="1, 1" pads_begin="0, 0" pads_end="0, 0" auto_pad="explicit" />
			<input>
				<port id="0" precision="FP32">
					<dim>-1</dim>
					<dim>8</dim>
					<dim>-1</dim>
					<dim>-1</dim>
				</port>
				<port id="1" precision="FP32">
					<dim>16</dim>
					<dim>8</dim>
					<dim>5</dim>
					<dim>5</dim>
				</port>
			</input>
			<output>
				<port id="2" precision="FP32">
					<dim>-1</dim>
					<dim>16</dim>
					<dim>-1</dim>
					<dim>-1</dim>
				</port>
			</output>
		</layer>
		<layer id="227" name="Reshape_939_compressed" type="Const" version="opset1">
			<data element_type="f16" shape="1, 16, 1, 1" offset="107898" size="32" />
			<output>
				<port id="0" precision="FP16">
					<dim>1</dim>
					<dim>16</dim>
					<dim>1</dim>
					<dim>1</dim>
				</port>
			</output>
		</layer>
		<layer id="228" name="Reshape_939" type="Convert" version="opset1">
			<data destination_type="f32" />
			<rt_info>
				<attribute name="decompression" version="0" />
			</rt_info>
			<input>
				<port id="0" precision="FP16">
					<dim>1</dim>
					<dim>16</dim>
					<dim>1</dim>
					<dim>1</dim>
				</port>
			</input>
			<output>
				<port id="1" precision="FP32">
					<dim>1</dim>
					<dim>16</dim>
					<dim>1</dim>
					<dim>1</dim>
				</port>
			</output>
		</layer>
		<layer id="229" name="StatefulPartitionedCall/model_3/conv2d_161/BiasAdd" type="Add" version="opset1">
			<data auto_broadcast="numpy" />
			<input>
				<port id="0" precision="FP32">
					<dim>-1</dim>
					<dim>16</dim>
					<dim>-1</dim>
					<dim>-1</dim>
				</port>
				<port id="1" precision="FP32">
					<dim>1</dim>
					<dim>16</dim>
					<dim>1</dim>
					<dim>1</dim>
				</port>
			</input>
			<output>
				<port id="2" precision="FP32" names="StatefulPartitionedCall/model_3/conv2d_161/BiasAdd:0">
					<dim>-1</dim>
					<dim>16</dim>
					<dim>-1</dim>
					<dim>-1</dim>
				</port>
			</output>
		</layer>
		<layer id="230" name="StatefulPartitionedCall/model_3/conv2d_161/Relu" type="ReLU" version="opset1">
			<input>
				<port id="0" precision="FP32">
					<dim>-1</dim>
					<dim>16</dim>
					<dim>-1</dim>
					<dim>-1</dim>
				</port>
			</input>
			<output>
				<port id="1" precision="FP32" names="StatefulPartitionedCall/model_3/conv2d_161/Relu:0">
					<dim>-1</dim>
					<dim>16</dim>
					<dim>-1</dim>
					<dim>-1</dim>
				</port>
			</output>
		</layer>
		<layer id="231" name="StatefulPartitionedCall/model_3/conv2d_162/Conv2D/ReadVariableOp:0_compressed" type="Const" version="opset1">
			<data element_type="f16" shape="32, 16, 5, 5" offset="107930" size="25600" />
			<output>
				<port id="0" precision="FP16">
					<dim>32</dim>
					<dim>16</dim>
					<dim>5</dim>
					<dim>5</dim>
				</port>
			</output>
		</layer>
		<layer id="232" name="StatefulPartitionedCall/model_3/conv2d_162/Conv2D/ReadVariableOp:0" type="Convert" version="opset1">
			<data destination_type="f32" />
			<rt_info>
				<attribute name="decompression" version="0" />
			</rt_info>
			<input>
				<port id="0" precision="FP16">
					<dim>32</dim>
					<dim>16</dim>
					<dim>5</dim>
					<dim>5</dim>
				</port>
			</input>
			<output>
				<port id="1" precision="FP32" names="StatefulPartitionedCall/model_3/conv2d_162/Conv2D/ReadVariableOp:0">
					<dim>32</dim>
					<dim>16</dim>
					<dim>5</dim>
					<dim>5</dim>
				</port>
			</output>
		</layer>
		<layer id="233" name="StatefulPartitionedCall/model_3/conv2d_162/BiasAdd/WithoutBiases" type="Convolution" version="opset1">
			<data strides="1, 1" dilations="1, 1" pads_begin="0, 0" pads_end="0, 0" auto_pad="explicit" />
			<input>
				<port id="0" precision="FP32">
					<dim>-1</dim>
					<dim>16</dim>
					<dim>-1</dim>
					<dim>-1</dim>
				</port>
				<port id="1" precision="FP32">
					<dim>32</dim>
					<dim>16</dim>
					<dim>5</dim>
					<dim>5</dim>
				</port>
			</input>
			<output>
				<port id="2" precision="FP32">
					<dim>-1</dim>
					<dim>32</dim>
					<dim>-1</dim>
					<dim>-1</dim>
				</port>
			</output>
		</layer>
		<layer id="234" name="Reshape_955_compressed" type="Const" version="opset1">
			<data element_type="f16" shape="1, 32, 1, 1" offset="133530" size="64" />
			<output>
				<port id="0" precision="FP16">
					<dim>1</dim>
					<dim>32</dim>
					<dim>1</dim>
					<dim>1</dim>
				</port>
			</output>
		</layer>
		<layer id="235" name="Reshape_955" type="Convert" version="opset1">
			<data destination_type="f32" />
			<rt_info>
				<attribute name="decompression" version="0" />
			</rt_info>
			<input>
				<port id="0" precision="FP16">
					<dim>1</dim>
					<dim>32</dim>
					<dim>1</dim>
					<dim>1</dim>
				</port>
			</input>
			<output>
				<port id="1" precision="FP32">
					<dim>1</dim>
					<dim>32</dim>
					<dim>1</dim>
					<dim>1</dim>
				</port>
			</output>
		</layer>
		<layer id="236" name="StatefulPartitionedCall/model_3/conv2d_162/BiasAdd" type="Add" version="opset1">
			<data auto_broadcast="numpy" />
			<input>
				<port id="0" precision="FP32">
					<dim>-1</dim>
					<dim>32</dim>
					<dim>-1</dim>
					<dim>-1</dim>
				</port>
				<port id="1" precision="FP32">
					<dim>1</dim>
					<dim>32</dim>
					<dim>1</dim>
					<dim>1</dim>
				</port>
			</input>
			<output>
				<port id="2" precision="FP32" names="StatefulPartitionedCall/model_3/conv2d_162/BiasAdd:0">
					<dim>-1</dim>
					<dim>32</dim>
					<dim>-1</dim>
					<dim>-1</dim>
				</port>
			</output>
		</layer>
		<layer id="237" name="StatefulPartitionedCall/model_3/conv2d_162/Relu" type="ReLU" version="opset1">
			<input>
				<port id="0" precision="FP32">
					<dim>-1</dim>
					<dim>32</dim>
					<dim>-1</dim>
					<dim>-1</dim>
				</port>
			</input>
			<output>
				<port id="1" precision="FP32" names="StatefulPartitionedCall/model_3/conv2d_162/Relu:0">
					<dim>-1</dim>
					<dim>32</dim>
					<dim>-1</dim>
					<dim>-1</dim>
				</port>
			</output>
		</layer>
		<layer id="238" name="StatefulPartitionedCall/model_3/conv2d_transpose_93/conv2d_transpose/ReadVariableOp:0_compressed" type="Const" version="opset1">
			<data element_type="f16" shape="32, 16, 5, 5" offset="133594" size="25600" />
			<output>
				<port id="0" precision="FP16">
					<dim>32</dim>
					<dim>16</dim>
					<dim>5</dim>
					<dim>5</dim>
				</port>
			</output>
		</layer>
		<layer id="239" name="StatefulPartitionedCall/model_3/conv2d_transpose_93/conv2d_transpose/ReadVariableOp:0" type="Convert" version="opset1">
			<data destination_type="f32" />
			<rt_info>
				<attribute name="decompression" version="0" />
			</rt_info>
			<input>
				<port id="0" precision="FP16">
					<dim>32</dim>
					<dim>16</dim>
					<dim>5</dim>
					<dim>5</dim>
				</port>
			</input>
			<output>
				<port id="1" precision="FP32" names="StatefulPartitionedCall/model_3/conv2d_transpose_93/conv2d_transpose/ReadVariableOp:0">
					<dim>32</dim>
					<dim>16</dim>
					<dim>5</dim>
					<dim>5</dim>
				</port>
			</output>
		</layer>
		<layer id="240" name="ConvolutionBackpropData_960" type="ConvolutionBackpropData" version="opset1">
			<data strides="1, 1" dilations="1, 1" pads_begin="0, 0" pads_end="0, 0" auto_pad="explicit" output_padding="0, 0" />
			<input>
				<port id="0" precision="FP32">
					<dim>-1</dim>
					<dim>32</dim>
					<dim>-1</dim>
					<dim>-1</dim>
				</port>
				<port id="1" precision="FP32">
					<dim>32</dim>
					<dim>16</dim>
					<dim>5</dim>
					<dim>5</dim>
				</port>
			</input>
			<output>
				<port id="2" precision="FP32">
					<dim>-1</dim>
					<dim>16</dim>
					<dim>-1</dim>
					<dim>-1</dim>
				</port>
			</output>
		</layer>
		<layer id="241" name="Reshape_962_compressed" type="Const" version="opset1">
			<data element_type="f16" shape="1, 16, 1, 1" offset="159194" size="32" />
			<output>
				<port id="0" precision="FP16">
					<dim>1</dim>
					<dim>16</dim>
					<dim>1</dim>
					<dim>1</dim>
				</port>
			</output>
		</layer>
		<layer id="242" name="Reshape_962" type="Convert" version="opset1">
			<data destination_type="f32" />
			<rt_info>
				<attribute name="decompression" version="0" />
			</rt_info>
			<input>
				<port id="0" precision="FP16">
					<dim>1</dim>
					<dim>16</dim>
					<dim>1</dim>
					<dim>1</dim>
				</port>
			</input>
			<output>
				<port id="1" precision="FP32">
					<dim>1</dim>
					<dim>16</dim>
					<dim>1</dim>
					<dim>1</dim>
				</port>
			</output>
		</layer>
		<layer id="243" name="StatefulPartitionedCall/model_3/conv2d_transpose_93/BiasAdd" type="Add" version="opset1">
			<data auto_broadcast="numpy" />
			<input>
				<port id="0" precision="FP32">
					<dim>-1</dim>
					<dim>16</dim>
					<dim>-1</dim>
					<dim>-1</dim>
				</port>
				<port id="1" precision="FP32">
					<dim>1</dim>
					<dim>16</dim>
					<dim>1</dim>
					<dim>1</dim>
				</port>
			</input>
			<output>
				<port id="2" precision="FP32" names="StatefulPartitionedCall/model_3/conv2d_transpose_93/BiasAdd:0">
					<dim>-1</dim>
					<dim>16</dim>
					<dim>-1</dim>
					<dim>-1</dim>
				</port>
			</output>
		</layer>
		<layer id="244" name="Constant_104067" type="Const" version="opset1">
			<data element_type="i64" shape="4" offset="67392" size="32" />
			<output>
				<port id="0" precision="I64">
					<dim>4</dim>
				</port>
			</output>
		</layer>
		<layer id="245" name="Constant_104066" type="Const" version="opset1">
			<data element_type="i64" shape="2" offset="67424" size="16" />
			<output>
				<port id="0" precision="I64">
					<dim>2</dim>
				</port>
			</output>
		</layer>
		<layer id="246" name="Shape__2696" type="ShapeOf" version="opset3">
			<data output_type="i64" />
			<input>
				<port id="0" precision="FP32">
					<dim>-1</dim>
					<dim>16</dim>
					<dim>-1</dim>
					<dim>-1</dim>
				</port>
			</input>
			<output>
				<port id="1" precision="I64" names="Shape__2696:0">
					<dim>4</dim>
				</port>
			</output>
		</layer>
		<layer id="247" name="Constant_1103" type="Const" version="opset1">
			<data element_type="i64" shape="" offset="67456" size="8" />
			<output>
				<port id="0" precision="I64" />
			</output>
		</layer>
		<layer id="248" name="Gather__2699" type="Gather" version="opset8">
			<data batch_dims="0" />
			<input>
				<port id="0" precision="I64">
					<dim>4</dim>
				</port>
				<port id="1" precision="I32">
					<dim>4</dim>
				</port>
				<port id="2" precision="I64" />
			</input>
			<output>
				<port id="3" precision="I64" names="Shape__1888:0">
					<dim>4</dim>
				</port>
			</output>
		</layer>
		<layer id="249" name="Broadcast_1114" type="Const" version="opset1">
			<data element_type="i64" shape="1" offset="67464" size="8" />
			<output>
				<port id="0" precision="I64">
					<dim>1</dim>
				</port>
			</output>
		</layer>
		<layer id="250" name="Slice__1893" type="StridedSlice" version="opset1">
			<data begin_mask="0" end_mask="0" new_axis_mask="" shrink_axis_mask="" ellipsis_mask="" />
			<input>
				<port id="0" precision="I64">
					<dim>4</dim>
				</port>
				<port id="1" precision="I64">
					<dim>1</dim>
				</port>
				<port id="2" precision="I64">
					<dim>1</dim>
				</port>
				<port id="3" precision="I64">
					<dim>1</dim>
				</port>
			</input>
			<output>
				<port id="4" precision="I64" names="Slice__1893:0">
					<dim>1</dim>
				</port>
			</output>
		</layer>
		<layer id="251" name="Shape__2690" type="ShapeOf" version="opset3">
			<data output_type="i64" />
			<input>
				<port id="0" precision="FP32">
					<dim>-1</dim>
					<dim>32</dim>
					<dim>-1</dim>
					<dim>-1</dim>
				</port>
			</input>
			<output>
				<port id="1" precision="I64" names="Shape__2690:0">
					<dim>4</dim>
				</port>
			</output>
		</layer>
		<layer id="252" name="Constant_1119" type="Const" version="opset1">
			<data element_type="i64" shape="" offset="67456" size="8" />
			<output>
				<port id="0" precision="I64" />
			</output>
		</layer>
		<layer id="253" name="Gather__2695" type="Gather" version="opset8">
			<data batch_dims="0" />
			<input>
				<port id="0" precision="I64">
					<dim>4</dim>
				</port>
				<port id="1" precision="I32">
					<dim>4</dim>
				</port>
				<port id="2" precision="I64" />
			</input>
			<output>
				<port id="3" precision="I64" names="StatefulPartitionedCall/model_3/conv2d_transpose_93/Shape:0">
					<dim>4</dim>
				</port>
			</output>
		</layer>
		<layer id="254" name="StatefulPartitionedCall/model_3/conv2d_transpose_93/Shape__1862" type="Convert" version="opset1">
			<data destination_type="i32" />
			<input>
				<port id="0" precision="I64">
					<dim>4</dim>
				</port>
			</input>
			<output>
				<port id="1" precision="I32" names="StatefulPartitionedCall/model_3/conv2d_transpose_93/Shape__1862:0">
					<dim>4</dim>
				</port>
			</output>
		</layer>
		<layer id="255" name="Broadcast_1144" type="Const" version="opset1">
			<data element_type="i64" shape="1" offset="67464" size="8" />
			<output>
				<port id="0" precision="I64">
					<dim>1</dim>
				</port>
			</output>
		</layer>
		<layer id="256" name="StatefulPartitionedCall/model_3/conv2d_transpose_93/strided_slice" type="StridedSlice" version="opset1">
			<data begin_mask="0" end_mask="0" new_axis_mask="" shrink_axis_mask="" ellipsis_mask="" />
			<input>
				<port id="0" precision="I32">
					<dim>4</dim>
				</port>
				<port id="1" precision="I64">
					<dim>1</dim>
				</port>
				<port id="2" precision="I64">
					<dim>1</dim>
				</port>
				<port id="3" precision="I64">
					<dim>1</dim>
				</port>
			</input>
			<output>
				<port id="4" precision="I32" names="StatefulPartitionedCall/model_3/conv2d_transpose_93/strided_slice:0">
					<dim>1</dim>
				</port>
			</output>
		</layer>
		<layer id="257" name="Broadcast_1134" type="Const" version="opset1">
			<data element_type="i64" shape="1" offset="67464" size="8" />
			<output>
				<port id="0" precision="I64">
					<dim>1</dim>
				</port>
			</output>
		</layer>
		<layer id="258" name="StatefulPartitionedCall/model_3/conv2d_transpose_93/strided_slice_1" type="StridedSlice" version="opset1">
			<data begin_mask="0" end_mask="0" new_axis_mask="" shrink_axis_mask="" ellipsis_mask="" />
			<input>
				<port id="0" precision="I32">
					<dim>4</dim>
				</port>
				<port id="1" precision="I64">
					<dim>1</dim>
				</port>
				<port id="2" precision="I64">
					<dim>1</dim>
				</port>
				<port id="3" precision="I64">
					<dim>1</dim>
				</port>
			</input>
			<output>
				<port id="4" precision="I32" names="StatefulPartitionedCall/model_3/conv2d_transpose_93/strided_slice_1:0">
					<dim>1</dim>
				</port>
			</output>
		</layer>
		<layer id="259" name="StatefulPartitionedCall/model_3/conv2d_transpose_93/strided_slice_1__1871" type="Squeeze" version="opset1">
			<input>
				<port id="0" precision="I32">
					<dim>1</dim>
				</port>
				<port id="1" precision="I64">
					<dim>1</dim>
				</port>
			</input>
			<output>
				<port id="2" precision="I32" names="StatefulPartitionedCall/model_3/conv2d_transpose_93/strided_slice_1__1871:0" />
			</output>
		</layer>
		<layer id="260" name="StatefulPartitionedCall/model_3/conv2d_transpose_93/add" type="Add" version="opset1">
			<data auto_broadcast="numpy" />
			<input>
				<port id="0" precision="I32" />
				<port id="1" precision="I32" />
			</input>
			<output>
				<port id="2" precision="I32" names="StatefulPartitionedCall/model_3/conv2d_transpose_93/add:0" />
			</output>
		</layer>
		<layer id="261" name="StatefulPartitionedCall/model_3/conv2d_transpose_93/stack_Unsqueeze__1881" type="Unsqueeze" version="opset1">
			<input>
				<port id="0" precision="I32" />
				<port id="1" precision="I64">
					<dim>1</dim>
				</port>
			</input>
			<output>
				<port id="2" precision="I32" names="StatefulPartitionedCall/model_3/conv2d_transpose_93/stack_Unsqueeze__1881:0">
					<dim>1</dim>
				</port>
			</output>
		</layer>
		<layer id="262" name="Broadcast_1124" type="Const" version="opset1">
			<data element_type="i64" shape="1" offset="67464" size="8" />
			<output>
				<port id="0" precision="I64">
					<dim>1</dim>
				</port>
			</output>
		</layer>
		<layer id="263" name="StatefulPartitionedCall/model_3/conv2d_transpose_93/strided_slice_2" type="StridedSlice" version="opset1">
			<data begin_mask="0" end_mask="0" new_axis_mask="" shrink_axis_mask="" ellipsis_mask="" />
			<input>
				<port id="0" precision="I32">
					<dim>4</dim>
				</port>
				<port id="1" precision="I64">
					<dim>1</dim>
				</port>
				<port id="2" precision="I64">
					<dim>1</dim>
				</port>
				<port id="3" precision="I64">
					<dim>1</dim>
				</port>
			</input>
			<output>
				<port id="4" precision="I32" names="StatefulPartitionedCall/model_3/conv2d_transpose_93/strided_slice_2:0">
					<dim>1</dim>
				</port>
			</output>
		</layer>
		<layer id="264" name="StatefulPartitionedCall/model_3/conv2d_transpose_93/strided_slice_2__1866" type="Squeeze" version="opset1">
			<input>
				<port id="0" precision="I32">
					<dim>1</dim>
				</port>
				<port id="1" precision="I64">
					<dim>1</dim>
				</port>
			</input>
			<output>
				<port id="2" precision="I32" names="StatefulPartitionedCall/model_3/conv2d_transpose_93/strided_slice_2__1866:0" />
			</output>
		</layer>
		<layer id="265" name="StatefulPartitionedCall/model_3/conv2d_transpose_93/add_1" type="Add" version="opset1">
			<data auto_broadcast="numpy" />
			<input>
				<port id="0" precision="I32" />
				<port id="1" precision="I32" />
			</input>
			<output>
				<port id="2" precision="I32" names="StatefulPartitionedCall/model_3/conv2d_transpose_93/add_1:0" />
			</output>
		</layer>
		<layer id="266" name="StatefulPartitionedCall/model_3/conv2d_transpose_93/stack_Unsqueeze__1883" type="Unsqueeze" version="opset1">
			<input>
				<port id="0" precision="I32" />
				<port id="1" precision="I64">
					<dim>1</dim>
				</port>
			</input>
			<output>
				<port id="2" precision="I32" names="StatefulPartitionedCall/model_3/conv2d_transpose_93/stack_Unsqueeze__1883:0">
					<dim>1</dim>
				</port>
			</output>
		</layer>
		<layer id="267" name="StatefulPartitionedCall/model_3/conv2d_transpose_93/stack_Concat__1886" type="Concat" version="opset1">
			<data axis="0" />
			<input>
				<port id="0" precision="I32">
					<dim>1</dim>
				</port>
				<port id="1" precision="I32">
					<dim>1</dim>
				</port>
				<port id="2" precision="I32">
					<dim>1</dim>
				</port>
				<port id="3" precision="I32">
					<dim>1</dim>
				</port>
			</input>
			<output>
				<port id="4" precision="I32" names="StatefulPartitionedCall/model_3/conv2d_transpose_93/stack_Concat__1886:0">
					<dim>4</dim>
				</port>
			</output>
		</layer>
		<layer id="268" name="Cast__1887" type="Convert" version="opset1">
			<data destination_type="i64" />
			<input>
				<port id="0" precision="I32">
					<dim>4</dim>
				</port>
			</input>
			<output>
				<port id="1" precision="I64" names="Cast__1887:0">
					<dim>4</dim>
				</port>
			</output>
		</layer>
		<layer id="269" name="Broadcast_1618" type="Const" version="opset1">
			<data element_type="i64" shape="1" offset="67464" size="8" />
			<output>
				<port id="0" precision="I64">
					<dim>1</dim>
				</port>
			</output>
		</layer>
		<layer id="270" name="Slice__1901" type="StridedSlice" version="opset1">
			<data begin_mask="0" end_mask="0" new_axis_mask="" shrink_axis_mask="" ellipsis_mask="" />
			<input>
				<port id="0" precision="I64">
					<dim>4</dim>
				</port>
				<port id="1" precision="I64">
					<dim>1</dim>
				</port>
				<port id="2" precision="I64">
					<dim>1</dim>
				</port>
				<port id="3" precision="I64">
					<dim>1</dim>
				</port>
			</input>
			<output>
				<port id="4" precision="I64" names="Slice__1901:0">
					<dim>1</dim>
				</port>
			</output>
		</layer>
		<layer id="271" name="Sub__1906" type="Subtract" version="opset1">
			<data auto_broadcast="numpy" />
			<input>
				<port id="0" precision="I64">
					<dim>1</dim>
				</port>
				<port id="1" precision="I64">
					<dim>1</dim>
				</port>
			</input>
			<output>
				<port id="2" precision="I64" names="Sub__1906:0">
					<dim>1</dim>
				</port>
			</output>
		</layer>
		<layer id="272" name="Div__1909" type="Divide" version="opset1">
			<data auto_broadcast="numpy" m_pythondiv="true" />
			<input>
				<port id="0" precision="I64">
					<dim>1</dim>
				</port>
				<port id="1" precision="I64">
					<dim>1</dim>
				</port>
			</input>
			<output>
				<port id="2" precision="I64" names="Div__1909:0">
					<dim>1</dim>
				</port>
			</output>
		</layer>
		<layer id="273" name="Broadcast_1107" type="Const" version="opset1">
			<data element_type="i64" shape="1" offset="67464" size="8" />
			<output>
				<port id="0" precision="I64">
					<dim>1</dim>
				</port>
			</output>
		</layer>
		<layer id="274" name="Slice__1897" type="StridedSlice" version="opset1">
			<data begin_mask="0" end_mask="0" new_axis_mask="" shrink_axis_mask="" ellipsis_mask="" />
			<input>
				<port id="0" precision="I64">
					<dim>4</dim>
				</port>
				<port id="1" precision="I64">
					<dim>1</dim>
				</port>
				<port id="2" precision="I64">
					<dim>1</dim>
				</port>
				<port id="3" precision="I64">
					<dim>1</dim>
				</port>
			</input>
			<output>
				<port id="4" precision="I64" names="Slice__1897:0">
					<dim>1</dim>
				</port>
			</output>
		</layer>
		<layer id="275" name="Broadcast_1609" type="Const" version="opset1">
			<data element_type="i64" shape="1" offset="67464" size="8" />
			<output>
				<port id="0" precision="I64">
					<dim>1</dim>
				</port>
			</output>
		</layer>
		<layer id="276" name="Slice__1905" type="StridedSlice" version="opset1">
			<data begin_mask="0" end_mask="0" new_axis_mask="" shrink_axis_mask="" ellipsis_mask="" />
			<input>
				<port id="0" precision="I64">
					<dim>4</dim>
				</port>
				<port id="1" precision="I64">
					<dim>1</dim>
				</port>
				<port id="2" precision="I64">
					<dim>1</dim>
				</port>
				<port id="3" precision="I64">
					<dim>1</dim>
				</port>
			</input>
			<output>
				<port id="4" precision="I64" names="Slice__1905:0">
					<dim>1</dim>
				</port>
			</output>
		</layer>
		<layer id="277" name="Sub__1907" type="Subtract" version="opset1">
			<data auto_broadcast="numpy" />
			<input>
				<port id="0" precision="I64">
					<dim>1</dim>
				</port>
				<port id="1" precision="I64">
					<dim>1</dim>
				</port>
			</input>
			<output>
				<port id="2" precision="I64" names="Sub__1907:0">
					<dim>1</dim>
				</port>
			</output>
		</layer>
		<layer id="278" name="Div__1910" type="Divide" version="opset1">
			<data auto_broadcast="numpy" m_pythondiv="true" />
			<input>
				<port id="0" precision="I64">
					<dim>1</dim>
				</port>
				<port id="1" precision="I64">
					<dim>1</dim>
				</port>
			</input>
			<output>
				<port id="2" precision="I64" names="Div__1910:0">
					<dim>1</dim>
				</port>
			</output>
		</layer>
		<layer id="279" name="Concat__1913" type="Concat" version="opset1">
			<data axis="0" />
			<input>
				<port id="0" precision="I64">
					<dim>1</dim>
				</port>
				<port id="1" precision="I64">
					<dim>1</dim>
				</port>
			</input>
			<output>
				<port id="2" precision="I64" names="Concat__1913:0">
					<dim>2</dim>
				</port>
			</output>
		</layer>
		<layer id="280" name="Constant_104065" type="Const" version="opset1">
			<data element_type="i32" shape="1" offset="67496" size="4" />
			<output>
				<port id="0" precision="I32">
					<dim>1</dim>
				</port>
			</output>
		</layer>
		<layer id="281" name="ScatterUpdate_104068" type="ScatterUpdate" version="opset3">
			<input>
				<port id="0" precision="I64">
					<dim>4</dim>
				</port>
				<port id="1" precision="I64">
					<dim>2</dim>
				</port>
				<port id="2" precision="I64">
					<dim>2</dim>
				</port>
				<port id="3" precision="I32">
					<dim>1</dim>
				</port>
			</input>
			<output>
				<port id="4" precision="I64">
					<dim>4</dim>
				</port>
			</output>
		</layer>
		<layer id="282" name="Constant_104069" type="Const" version="opset1">
			<data element_type="i64" shape="4" offset="67392" size="32" />
			<output>
				<port id="0" precision="I64">
					<dim>4</dim>
				</port>
			</output>
		</layer>
		<layer id="283" name="Add__1911" type="Add" version="opset1">
			<data auto_broadcast="numpy" />
			<input>
				<port id="0" precision="I64">
					<dim>1</dim>
				</port>
				<port id="1" precision="I64">
					<dim>1</dim>
				</port>
			</input>
			<output>
				<port id="2" precision="I64" names="Add__1911:0">
					<dim>1</dim>
				</port>
			</output>
		</layer>
		<layer id="284" name="Add__1912" type="Add" version="opset1">
			<data auto_broadcast="numpy" />
			<input>
				<port id="0" precision="I64">
					<dim>1</dim>
				</port>
				<port id="1" precision="I64">
					<dim>1</dim>
				</port>
			</input>
			<output>
				<port id="2" precision="I64" names="Add__1912:0">
					<dim>1</dim>
				</port>
			</output>
		</layer>
		<layer id="285" name="Concat__1914" type="Concat" version="opset1">
			<data axis="0" />
			<input>
				<port id="0" precision="I64">
					<dim>1</dim>
				</port>
				<port id="1" precision="I64">
					<dim>1</dim>
				</port>
			</input>
			<output>
				<port id="2" precision="I64" names="Concat__1914:0">
					<dim>2</dim>
				</port>
			</output>
		</layer>
		<layer id="286" name="ScatterUpdate_104070" type="ScatterUpdate" version="opset3">
			<input>
				<port id="0" precision="I64">
					<dim>4</dim>
				</port>
				<port id="1" precision="I64">
					<dim>2</dim>
				</port>
				<port id="2" precision="I64">
					<dim>2</dim>
				</port>
				<port id="3" precision="I32">
					<dim>1</dim>
				</port>
			</input>
			<output>
				<port id="4" precision="I64">
					<dim>4</dim>
				</port>
			</output>
		</layer>
		<layer id="287" name="Constant_104073" type="Const" version="opset1">
			<data element_type="i64" shape="4" offset="67500" size="32" />
			<output>
				<port id="0" precision="I64">
					<dim>4</dim>
				</port>
			</output>
		</layer>
		<layer id="288" name="Slice__1916" type="StridedSlice" version="opset1">
			<data begin_mask="1, 1, 0, 0" end_mask="1, 1, 0, 0" new_axis_mask="" shrink_axis_mask="" ellipsis_mask="" />
			<input>
				<port id="0" precision="FP32">
					<dim>-1</dim>
					<dim>16</dim>
					<dim>-1</dim>
					<dim>-1</dim>
				</port>
				<port id="1" precision="I64">
					<dim>4</dim>
				</port>
				<port id="2" precision="I64">
					<dim>4</dim>
				</port>
				<port id="3" precision="I64">
					<dim>4</dim>
				</port>
			</input>
			<output>
				<port id="4" precision="FP32" names="Slice__1916:0">
					<dim>-1</dim>
					<dim>16</dim>
					<dim>-1</dim>
					<dim>-1</dim>
				</port>
			</output>
		</layer>
		<layer id="289" name="StatefulPartitionedCall/model_3/conv2d_transpose_93/Relu" type="ReLU" version="opset1">
			<input>
				<port id="0" precision="FP32">
					<dim>-1</dim>
					<dim>16</dim>
					<dim>-1</dim>
					<dim>-1</dim>
				</port>
			</input>
			<output>
				<port id="1" precision="FP32" names="StatefulPartitionedCall/model_3/conv2d_transpose_93/Relu:0">
					<dim>-1</dim>
					<dim>16</dim>
					<dim>-1</dim>
					<dim>-1</dim>
				</port>
			</output>
		</layer>
		<layer id="290" name="StatefulPartitionedCall/model_3/conv2d_transpose_94/conv2d_transpose/ReadVariableOp:0_compressed" type="Const" version="opset1">
			<data element_type="f16" shape="16, 8, 5, 5" offset="159226" size="6400" />
			<output>
				<port id="0" precision="FP16">
					<dim>16</dim>
					<dim>8</dim>
					<dim>5</dim>
					<dim>5</dim>
				</port>
			</output>
		</layer>
		<layer id="291" name="StatefulPartitionedCall/model_3/conv2d_transpose_94/conv2d_transpose/ReadVariableOp:0" type="Convert" version="opset1">
			<data destination_type="f32" />
			<rt_info>
				<attribute name="decompression" version="0" />
			</rt_info>
			<input>
				<port id="0" precision="FP16">
					<dim>16</dim>
					<dim>8</dim>
					<dim>5</dim>
					<dim>5</dim>
				</port>
			</input>
			<output>
				<port id="1" precision="FP32" names="StatefulPartitionedCall/model_3/conv2d_transpose_94/conv2d_transpose/ReadVariableOp:0">
					<dim>16</dim>
					<dim>8</dim>
					<dim>5</dim>
					<dim>5</dim>
				</port>
			</output>
		</layer>
		<layer id="292" name="ConvolutionBackpropData_12661" type="ConvolutionBackpropData" version="opset1">
			<data strides="1, 1" dilations="1, 1" pads_begin="0, 0" pads_end="0, 0" auto_pad="explicit" output_padding="0, 0" />
			<input>
				<port id="0" precision="FP32">
					<dim>-1</dim>
					<dim>16</dim>
					<dim>-1</dim>
					<dim>-1</dim>
				</port>
				<port id="1" precision="FP32">
					<dim>16</dim>
					<dim>8</dim>
					<dim>5</dim>
					<dim>5</dim>
				</port>
			</input>
			<output>
				<port id="2" precision="FP32">
					<dim>-1</dim>
					<dim>8</dim>
					<dim>-1</dim>
					<dim>-1</dim>
				</port>
			</output>
		</layer>
		<layer id="293" name="Reshape_12663_compressed" type="Const" version="opset1">
			<data element_type="f16" shape="1, 8, 1, 1" offset="165626" size="16" />
			<output>
				<port id="0" precision="FP16">
					<dim>1</dim>
					<dim>8</dim>
					<dim>1</dim>
					<dim>1</dim>
				</port>
			</output>
		</layer>
		<layer id="294" name="Reshape_12663" type="Convert" version="opset1">
			<data destination_type="f32" />
			<rt_info>
				<attribute name="decompression" version="0" />
			</rt_info>
			<input>
				<port id="0" precision="FP16">
					<dim>1</dim>
					<dim>8</dim>
					<dim>1</dim>
					<dim>1</dim>
				</port>
			</input>
			<output>
				<port id="1" precision="FP32">
					<dim>1</dim>
					<dim>8</dim>
					<dim>1</dim>
					<dim>1</dim>
				</port>
			</output>
		</layer>
		<layer id="295" name="StatefulPartitionedCall/model_3/conv2d_transpose_94/BiasAdd" type="Add" version="opset1">
			<data auto_broadcast="numpy" />
			<input>
				<port id="0" precision="FP32">
					<dim>-1</dim>
					<dim>8</dim>
					<dim>-1</dim>
					<dim>-1</dim>
				</port>
				<port id="1" precision="FP32">
					<dim>1</dim>
					<dim>8</dim>
					<dim>1</dim>
					<dim>1</dim>
				</port>
			</input>
			<output>
				<port id="2" precision="FP32" names="StatefulPartitionedCall/model_3/conv2d_transpose_94/BiasAdd:0">
					<dim>-1</dim>
					<dim>8</dim>
					<dim>-1</dim>
					<dim>-1</dim>
				</port>
			</output>
		</layer>
		<layer id="296" name="Constant_104868" type="Const" version="opset1">
			<data element_type="i64" shape="4" offset="67392" size="32" />
			<output>
				<port id="0" precision="I64">
					<dim>4</dim>
				</port>
			</output>
		</layer>
		<layer id="297" name="Constant_104867" type="Const" version="opset1">
			<data element_type="i64" shape="2" offset="67424" size="16" />
			<output>
				<port id="0" precision="I64">
					<dim>2</dim>
				</port>
			</output>
		</layer>
		<layer id="298" name="Shape__2874" type="ShapeOf" version="opset3">
			<data output_type="i64" />
			<input>
				<port id="0" precision="FP32">
					<dim>-1</dim>
					<dim>8</dim>
					<dim>-1</dim>
					<dim>-1</dim>
				</port>
			</input>
			<output>
				<port id="1" precision="I64" names="Shape__2874:0">
					<dim>4</dim>
				</port>
			</output>
		</layer>
		<layer id="299" name="Constant_12668" type="Const" version="opset1">
			<data element_type="i64" shape="" offset="67456" size="8" />
			<output>
				<port id="0" precision="I64" />
			</output>
		</layer>
		<layer id="300" name="Gather__2877" type="Gather" version="opset8">
			<data batch_dims="0" />
			<input>
				<port id="0" precision="I64">
					<dim>4</dim>
				</port>
				<port id="1" precision="I32">
					<dim>4</dim>
				</port>
				<port id="2" precision="I64" />
			</input>
			<output>
				<port id="3" precision="I64" names="Shape__1950:0">
					<dim>4</dim>
				</port>
			</output>
		</layer>
		<layer id="301" name="Broadcast_12679" type="Const" version="opset1">
			<data element_type="i64" shape="1" offset="67464" size="8" />
			<output>
				<port id="0" precision="I64">
					<dim>1</dim>
				</port>
			</output>
		</layer>
		<layer id="302" name="Slice__1955" type="StridedSlice" version="opset1">
			<data begin_mask="0" end_mask="0" new_axis_mask="" shrink_axis_mask="" ellipsis_mask="" />
			<input>
				<port id="0" precision="I64">
					<dim>4</dim>
				</port>
				<port id="1" precision="I64">
					<dim>1</dim>
				</port>
				<port id="2" precision="I64">
					<dim>1</dim>
				</port>
				<port id="3" precision="I64">
					<dim>1</dim>
				</port>
			</input>
			<output>
				<port id="4" precision="I64" names="Slice__1955:0">
					<dim>1</dim>
				</port>
			</output>
		</layer>
		<layer id="303" name="Shape__3006" type="ShapeOf" version="opset3">
			<data output_type="i64" />
			<input>
				<port id="0" precision="FP32">
					<dim>-1</dim>
					<dim>16</dim>
					<dim>-1</dim>
					<dim>-1</dim>
				</port>
			</input>
			<output>
				<port id="1" precision="I64" names="Shape__3006:0">
					<dim>4</dim>
				</port>
			</output>
		</layer>
		<layer id="304" name="Constant_12685" type="Const" version="opset1">
			<data element_type="i64" shape="" offset="67456" size="8" />
			<output>
				<port id="0" precision="I64" />
			</output>
		</layer>
		<layer id="305" name="Gather__3011" type="Gather" version="opset8">
			<data batch_dims="0" />
			<input>
				<port id="0" precision="I64">
					<dim>4</dim>
				</port>
				<port id="1" precision="I32">
					<dim>4</dim>
				</port>
				<port id="2" precision="I64" />
			</input>
			<output>
				<port id="3" precision="I64" names="StatefulPartitionedCall/model_3/conv2d_transpose_94/Shape:0">
					<dim>4</dim>
				</port>
			</output>
		</layer>
		<layer id="306" name="StatefulPartitionedCall/model_3/conv2d_transpose_94/Shape__1924" type="Convert" version="opset1">
			<data destination_type="i32" />
			<input>
				<port id="0" precision="I64">
					<dim>4</dim>
				</port>
			</input>
			<output>
				<port id="1" precision="I32" names="StatefulPartitionedCall/model_3/conv2d_transpose_94/Shape__1924:0">
					<dim>4</dim>
				</port>
			</output>
		</layer>
		<layer id="307" name="Broadcast_12710" type="Const" version="opset1">
			<data element_type="i64" shape="1" offset="67464" size="8" />
			<output>
				<port id="0" precision="I64">
					<dim>1</dim>
				</port>
			</output>
		</layer>
		<layer id="308" name="StatefulPartitionedCall/model_3/conv2d_transpose_94/strided_slice" type="StridedSlice" version="opset1">
			<data begin_mask="0" end_mask="0" new_axis_mask="" shrink_axis_mask="" ellipsis_mask="" />
			<input>
				<port id="0" precision="I32">
					<dim>4</dim>
				</port>
				<port id="1" precision="I64">
					<dim>1</dim>
				</port>
				<port id="2" precision="I64">
					<dim>1</dim>
				</port>
				<port id="3" precision="I64">
					<dim>1</dim>
				</port>
			</input>
			<output>
				<port id="4" precision="I32" names="StatefulPartitionedCall/model_3/conv2d_transpose_94/strided_slice:0">
					<dim>1</dim>
				</port>
			</output>
		</layer>
		<layer id="309" name="Broadcast_12700" type="Const" version="opset1">
			<data element_type="i64" shape="1" offset="67464" size="8" />
			<output>
				<port id="0" precision="I64">
					<dim>1</dim>
				</port>
			</output>
		</layer>
		<layer id="310" name="StatefulPartitionedCall/model_3/conv2d_transpose_94/strided_slice_1" type="StridedSlice" version="opset1">
			<data begin_mask="0" end_mask="0" new_axis_mask="" shrink_axis_mask="" ellipsis_mask="" />
			<input>
				<port id="0" precision="I32">
					<dim>4</dim>
				</port>
				<port id="1" precision="I64">
					<dim>1</dim>
				</port>
				<port id="2" precision="I64">
					<dim>1</dim>
				</port>
				<port id="3" precision="I64">
					<dim>1</dim>
				</port>
			</input>
			<output>
				<port id="4" precision="I32" names="StatefulPartitionedCall/model_3/conv2d_transpose_94/strided_slice_1:0">
					<dim>1</dim>
				</port>
			</output>
		</layer>
		<layer id="311" name="StatefulPartitionedCall/model_3/conv2d_transpose_94/strided_slice_1__1933" type="Squeeze" version="opset1">
			<input>
				<port id="0" precision="I32">
					<dim>1</dim>
				</port>
				<port id="1" precision="I64">
					<dim>1</dim>
				</port>
			</input>
			<output>
				<port id="2" precision="I32" names="StatefulPartitionedCall/model_3/conv2d_transpose_94/strided_slice_1__1933:0" />
			</output>
		</layer>
		<layer id="312" name="StatefulPartitionedCall/model_3/conv2d_transpose_94/add" type="Add" version="opset1">
			<data auto_broadcast="numpy" />
			<input>
				<port id="0" precision="I32" />
				<port id="1" precision="I32" />
			</input>
			<output>
				<port id="2" precision="I32" names="StatefulPartitionedCall/model_3/conv2d_transpose_94/add:0" />
			</output>
		</layer>
		<layer id="313" name="StatefulPartitionedCall/model_3/conv2d_transpose_94/stack_Unsqueeze__1943" type="Unsqueeze" version="opset1">
			<input>
				<port id="0" precision="I32" />
				<port id="1" precision="I64">
					<dim>1</dim>
				</port>
			</input>
			<output>
				<port id="2" precision="I32" names="StatefulPartitionedCall/model_3/conv2d_transpose_94/stack_Unsqueeze__1943:0">
					<dim>1</dim>
				</port>
			</output>
		</layer>
		<layer id="314" name="Broadcast_12690" type="Const" version="opset1">
			<data element_type="i64" shape="1" offset="67464" size="8" />
			<output>
				<port id="0" precision="I64">
					<dim>1</dim>
				</port>
			</output>
		</layer>
		<layer id="315" name="StatefulPartitionedCall/model_3/conv2d_transpose_94/strided_slice_2" type="StridedSlice" version="opset1">
			<data begin_mask="0" end_mask="0" new_axis_mask="" shrink_axis_mask="" ellipsis_mask="" />
			<input>
				<port id="0" precision="I32">
					<dim>4</dim>
				</port>
				<port id="1" precision="I64">
					<dim>1</dim>
				</port>
				<port id="2" precision="I64">
					<dim>1</dim>
				</port>
				<port id="3" precision="I64">
					<dim>1</dim>
				</port>
			</input>
			<output>
				<port id="4" precision="I32" names="StatefulPartitionedCall/model_3/conv2d_transpose_94/strided_slice_2:0">
					<dim>1</dim>
				</port>
			</output>
		</layer>
		<layer id="316" name="StatefulPartitionedCall/model_3/conv2d_transpose_94/strided_slice_2__1928" type="Squeeze" version="opset1">
			<input>
				<port id="0" precision="I32">
					<dim>1</dim>
				</port>
				<port id="1" precision="I64">
					<dim>1</dim>
				</port>
			</input>
			<output>
				<port id="2" precision="I32" names="StatefulPartitionedCall/model_3/conv2d_transpose_94/strided_slice_2__1928:0" />
			</output>
		</layer>
		<layer id="317" name="StatefulPartitionedCall/model_3/conv2d_transpose_94/add_1" type="Add" version="opset1">
			<data auto_broadcast="numpy" />
			<input>
				<port id="0" precision="I32" />
				<port id="1" precision="I32" />
			</input>
			<output>
				<port id="2" precision="I32" names="StatefulPartitionedCall/model_3/conv2d_transpose_94/add_1:0" />
			</output>
		</layer>
		<layer id="318" name="StatefulPartitionedCall/model_3/conv2d_transpose_94/stack_Unsqueeze__1945" type="Unsqueeze" version="opset1">
			<input>
				<port id="0" precision="I32" />
				<port id="1" precision="I64">
					<dim>1</dim>
				</port>
			</input>
			<output>
				<port id="2" precision="I32" names="StatefulPartitionedCall/model_3/conv2d_transpose_94/stack_Unsqueeze__1945:0">
					<dim>1</dim>
				</port>
			</output>
		</layer>
		<layer id="319" name="StatefulPartitionedCall/model_3/conv2d_transpose_94/stack_Concat__1948" type="Concat" version="opset1">
			<data axis="0" />
			<input>
				<port id="0" precision="I32">
					<dim>1</dim>
				</port>
				<port id="1" precision="I32">
					<dim>1</dim>
				</port>
				<port id="2" precision="I32">
					<dim>1</dim>
				</port>
				<port id="3" precision="I32">
					<dim>1</dim>
				</port>
			</input>
			<output>
				<port id="4" precision="I32" names="StatefulPartitionedCall/model_3/conv2d_transpose_94/stack_Concat__1948:0">
					<dim>4</dim>
				</port>
			</output>
		</layer>
		<layer id="320" name="Cast__1949" type="Convert" version="opset1">
			<data destination_type="i64" />
			<input>
				<port id="0" precision="I32">
					<dim>4</dim>
				</port>
			</input>
			<output>
				<port id="1" precision="I64" names="Cast__1949:0">
					<dim>4</dim>
				</port>
			</output>
		</layer>
		<layer id="321" name="Broadcast_12729" type="Const" version="opset1">
			<data element_type="i64" shape="1" offset="67464" size="8" />
			<output>
				<port id="0" precision="I64">
					<dim>1</dim>
				</port>
			</output>
		</layer>
		<layer id="322" name="Slice__1963" type="StridedSlice" version="opset1">
			<data begin_mask="0" end_mask="0" new_axis_mask="" shrink_axis_mask="" ellipsis_mask="" />
			<input>
				<port id="0" precision="I64">
					<dim>4</dim>
				</port>
				<port id="1" precision="I64">
					<dim>1</dim>
				</port>
				<port id="2" precision="I64">
					<dim>1</dim>
				</port>
				<port id="3" precision="I64">
					<dim>1</dim>
				</port>
			</input>
			<output>
				<port id="4" precision="I64" names="Slice__1963:0">
					<dim>1</dim>
				</port>
			</output>
		</layer>
		<layer id="323" name="Sub__1968" type="Subtract" version="opset1">
			<data auto_broadcast="numpy" />
			<input>
				<port id="0" precision="I64">
					<dim>1</dim>
				</port>
				<port id="1" precision="I64">
					<dim>1</dim>
				</port>
			</input>
			<output>
				<port id="2" precision="I64" names="Sub__1968:0">
					<dim>1</dim>
				</port>
			</output>
		</layer>
		<layer id="324" name="Div__1971" type="Divide" version="opset1">
			<data auto_broadcast="numpy" m_pythondiv="true" />
			<input>
				<port id="0" precision="I64">
					<dim>1</dim>
				</port>
				<port id="1" precision="I64">
					<dim>1</dim>
				</port>
			</input>
			<output>
				<port id="2" precision="I64" names="Div__1971:0">
					<dim>1</dim>
				</port>
			</output>
		</layer>
		<layer id="325" name="Broadcast_12672" type="Const" version="opset1">
			<data element_type="i64" shape="1" offset="67464" size="8" />
			<output>
				<port id="0" precision="I64">
					<dim>1</dim>
				</port>
			</output>
		</layer>
		<layer id="326" name="Slice__1959" type="StridedSlice" version="opset1">
			<data begin_mask="0" end_mask="0" new_axis_mask="" shrink_axis_mask="" ellipsis_mask="" />
			<input>
				<port id="0" precision="I64">
					<dim>4</dim>
				</port>
				<port id="1" precision="I64">
					<dim>1</dim>
				</port>
				<port id="2" precision="I64">
					<dim>1</dim>
				</port>
				<port id="3" precision="I64">
					<dim>1</dim>
				</port>
			</input>
			<output>
				<port id="4" precision="I64" names="Slice__1959:0">
					<dim>1</dim>
				</port>
			</output>
		</layer>
		<layer id="327" name="Broadcast_12719" type="Const" version="opset1">
			<data element_type="i64" shape="1" offset="67464" size="8" />
			<output>
				<port id="0" precision="I64">
					<dim>1</dim>
				</port>
			</output>
		</layer>
		<layer id="328" name="Slice__1967" type="StridedSlice" version="opset1">
			<data begin_mask="0" end_mask="0" new_axis_mask="" shrink_axis_mask="" ellipsis_mask="" />
			<input>
				<port id="0" precision="I64">
					<dim>4</dim>
				</port>
				<port id="1" precision="I64">
					<dim>1</dim>
				</port>
				<port id="2" precision="I64">
					<dim>1</dim>
				</port>
				<port id="3" precision="I64">
					<dim>1</dim>
				</port>
			</input>
			<output>
				<port id="4" precision="I64" names="Slice__1967:0">
					<dim>1</dim>
				</port>
			</output>
		</layer>
		<layer id="329" name="Sub__1969" type="Subtract" version="opset1">
			<data auto_broadcast="numpy" />
			<input>
				<port id="0" precision="I64">
					<dim>1</dim>
				</port>
				<port id="1" precision="I64">
					<dim>1</dim>
				</port>
			</input>
			<output>
				<port id="2" precision="I64" names="Sub__1969:0">
					<dim>1</dim>
				</port>
			</output>
		</layer>
		<layer id="330" name="Div__1972" type="Divide" version="opset1">
			<data auto_broadcast="numpy" m_pythondiv="true" />
			<input>
				<port id="0" precision="I64">
					<dim>1</dim>
				</port>
				<port id="1" precision="I64">
					<dim>1</dim>
				</port>
			</input>
			<output>
				<port id="2" precision="I64" names="Div__1972:0">
					<dim>1</dim>
				</port>
			</output>
		</layer>
		<layer id="331" name="Concat__1975" type="Concat" version="opset1">
			<data axis="0" />
			<input>
				<port id="0" precision="I64">
					<dim>1</dim>
				</port>
				<port id="1" precision="I64">
					<dim>1</dim>
				</port>
			</input>
			<output>
				<port id="2" precision="I64" names="Concat__1975:0">
					<dim>2</dim>
				</port>
			</output>
		</layer>
		<layer id="332" name="Constant_104866" type="Const" version="opset1">
			<data element_type="i32" shape="1" offset="67496" size="4" />
			<output>
				<port id="0" precision="I32">
					<dim>1</dim>
				</port>
			</output>
		</layer>
		<layer id="333" name="ScatterUpdate_104869" type="ScatterUpdate" version="opset3">
			<input>
				<port id="0" precision="I64">
					<dim>4</dim>
				</port>
				<port id="1" precision="I64">
					<dim>2</dim>
				</port>
				<port id="2" precision="I64">
					<dim>2</dim>
				</port>
				<port id="3" precision="I32">
					<dim>1</dim>
				</port>
			</input>
			<output>
				<port id="4" precision="I64">
					<dim>4</dim>
				</port>
			</output>
		</layer>
		<layer id="334" name="Constant_104870" type="Const" version="opset1">
			<data element_type="i64" shape="4" offset="67392" size="32" />
			<output>
				<port id="0" precision="I64">
					<dim>4</dim>
				</port>
			</output>
		</layer>
		<layer id="335" name="Add__1973" type="Add" version="opset1">
			<data auto_broadcast="numpy" />
			<input>
				<port id="0" precision="I64">
					<dim>1</dim>
				</port>
				<port id="1" precision="I64">
					<dim>1</dim>
				</port>
			</input>
			<output>
				<port id="2" precision="I64" names="Add__1973:0">
					<dim>1</dim>
				</port>
			</output>
		</layer>
		<layer id="336" name="Add__1974" type="Add" version="opset1">
			<data auto_broadcast="numpy" />
			<input>
				<port id="0" precision="I64">
					<dim>1</dim>
				</port>
				<port id="1" precision="I64">
					<dim>1</dim>
				</port>
			</input>
			<output>
				<port id="2" precision="I64" names="Add__1974:0">
					<dim>1</dim>
				</port>
			</output>
		</layer>
		<layer id="337" name="Concat__1976" type="Concat" version="opset1">
			<data axis="0" />
			<input>
				<port id="0" precision="I64">
					<dim>1</dim>
				</port>
				<port id="1" precision="I64">
					<dim>1</dim>
				</port>
			</input>
			<output>
				<port id="2" precision="I64" names="Concat__1976:0">
					<dim>2</dim>
				</port>
			</output>
		</layer>
		<layer id="338" name="ScatterUpdate_104871" type="ScatterUpdate" version="opset3">
			<input>
				<port id="0" precision="I64">
					<dim>4</dim>
				</port>
				<port id="1" precision="I64">
					<dim>2</dim>
				</port>
				<port id="2" precision="I64">
					<dim>2</dim>
				</port>
				<port id="3" precision="I32">
					<dim>1</dim>
				</port>
			</input>
			<output>
				<port id="4" precision="I64">
					<dim>4</dim>
				</port>
			</output>
		</layer>
		<layer id="339" name="Constant_104874" type="Const" version="opset1">
			<data element_type="i64" shape="4" offset="67500" size="32" />
			<output>
				<port id="0" precision="I64">
					<dim>4</dim>
				</port>
			</output>
		</layer>
		<layer id="340" name="Slice__1978" type="StridedSlice" version="opset1">
			<data begin_mask="1, 1, 0, 0" end_mask="1, 1, 0, 0" new_axis_mask="" shrink_axis_mask="" ellipsis_mask="" />
			<input>
				<port id="0" precision="FP32">
					<dim>-1</dim>
					<dim>8</dim>
					<dim>-1</dim>
					<dim>-1</dim>
				</port>
				<port id="1" precision="I64">
					<dim>4</dim>
				</port>
				<port id="2" precision="I64">
					<dim>4</dim>
				</port>
				<port id="3" precision="I64">
					<dim>4</dim>
				</port>
			</input>
			<output>
				<port id="4" precision="FP32" names="Slice__1978:0">
					<dim>-1</dim>
					<dim>8</dim>
					<dim>-1</dim>
					<dim>-1</dim>
				</port>
			</output>
		</layer>
		<layer id="341" name="StatefulPartitionedCall/model_3/conv2d_transpose_94/Relu" type="ReLU" version="opset1">
			<input>
				<port id="0" precision="FP32">
					<dim>-1</dim>
					<dim>8</dim>
					<dim>-1</dim>
					<dim>-1</dim>
				</port>
			</input>
			<output>
				<port id="1" precision="FP32" names="StatefulPartitionedCall/model_3/conv2d_transpose_94/Relu:0">
					<dim>-1</dim>
					<dim>8</dim>
					<dim>-1</dim>
					<dim>-1</dim>
				</port>
			</output>
		</layer>
		<layer id="342" name="StatefulPartitionedCall/model_3/conv2d_transpose_95/conv2d_transpose/ReadVariableOp:0_compressed" type="Const" version="opset1">
			<data element_type="f16" shape="8, 3, 5, 5" offset="165642" size="1200" />
			<output>
				<port id="0" precision="FP16">
					<dim>8</dim>
					<dim>3</dim>
					<dim>5</dim>
					<dim>5</dim>
				</port>
			</output>
		</layer>
		<layer id="343" name="StatefulPartitionedCall/model_3/conv2d_transpose_95/conv2d_transpose/ReadVariableOp:0" type="Convert" version="opset1">
			<data destination_type="f32" />
			<rt_info>
				<attribute name="decompression" version="0" />
			</rt_info>
			<input>
				<port id="0" precision="FP16">
					<dim>8</dim>
					<dim>3</dim>
					<dim>5</dim>
					<dim>5</dim>
				</port>
			</input>
			<output>
				<port id="1" precision="FP32" names="StatefulPartitionedCall/model_3/conv2d_transpose_95/conv2d_transpose/ReadVariableOp:0">
					<dim>8</dim>
					<dim>3</dim>
					<dim>5</dim>
					<dim>5</dim>
				</port>
			</output>
		</layer>
		<layer id="344" name="ConvolutionBackpropData_13531" type="ConvolutionBackpropData" version="opset1">
			<data strides="1, 1" dilations="1, 1" pads_begin="0, 0" pads_end="0, 0" auto_pad="explicit" output_padding="0, 0" />
			<input>
				<port id="0" precision="FP32">
					<dim>-1</dim>
					<dim>8</dim>
					<dim>-1</dim>
					<dim>-1</dim>
				</port>
				<port id="1" precision="FP32">
					<dim>8</dim>
					<dim>3</dim>
					<dim>5</dim>
					<dim>5</dim>
				</port>
			</input>
			<output>
				<port id="2" precision="FP32">
					<dim>-1</dim>
					<dim>3</dim>
					<dim>-1</dim>
					<dim>-1</dim>
				</port>
			</output>
		</layer>
		<layer id="345" name="Reshape_13533_compressed" type="Const" version="opset1">
			<data element_type="f16" shape="1, 3, 1, 1" offset="166842" size="6" />
			<output>
				<port id="0" precision="FP16">
					<dim>1</dim>
					<dim>3</dim>
					<dim>1</dim>
					<dim>1</dim>
				</port>
			</output>
		</layer>
		<layer id="346" name="Reshape_13533" type="Convert" version="opset1">
			<data destination_type="f32" />
			<rt_info>
				<attribute name="decompression" version="0" />
			</rt_info>
			<input>
				<port id="0" precision="FP16">
					<dim>1</dim>
					<dim>3</dim>
					<dim>1</dim>
					<dim>1</dim>
				</port>
			</input>
			<output>
				<port id="1" precision="FP32">
					<dim>1</dim>
					<dim>3</dim>
					<dim>1</dim>
					<dim>1</dim>
				</port>
			</output>
		</layer>
		<layer id="347" name="StatefulPartitionedCall/model_3/conv2d_transpose_95/BiasAdd" type="Add" version="opset1">
			<data auto_broadcast="numpy" />
			<input>
				<port id="0" precision="FP32">
					<dim>-1</dim>
					<dim>3</dim>
					<dim>-1</dim>
					<dim>-1</dim>
				</port>
				<port id="1" precision="FP32">
					<dim>1</dim>
					<dim>3</dim>
					<dim>1</dim>
					<dim>1</dim>
				</port>
			</input>
			<output>
				<port id="2" precision="FP32" names="StatefulPartitionedCall/model_3/conv2d_transpose_95/BiasAdd:0">
					<dim>-1</dim>
					<dim>3</dim>
					<dim>-1</dim>
					<dim>-1</dim>
				</port>
			</output>
		</layer>
		<layer id="348" name="Constant_105669" type="Const" version="opset1">
			<data element_type="i64" shape="4" offset="67392" size="32" />
			<output>
				<port id="0" precision="I64">
					<dim>4</dim>
				</port>
			</output>
		</layer>
		<layer id="349" name="Constant_105668" type="Const" version="opset1">
			<data element_type="i64" shape="2" offset="67424" size="16" />
			<output>
				<port id="0" precision="I64">
					<dim>2</dim>
				</port>
			</output>
		</layer>
		<layer id="350" name="Shape__2870" type="ShapeOf" version="opset3">
			<data output_type="i64" />
			<input>
				<port id="0" precision="FP32">
					<dim>-1</dim>
					<dim>3</dim>
					<dim>-1</dim>
					<dim>-1</dim>
				</port>
			</input>
			<output>
				<port id="1" precision="I64" names="Shape__2870:0">
					<dim>4</dim>
				</port>
			</output>
		</layer>
		<layer id="351" name="Constant_13538" type="Const" version="opset1">
			<data element_type="i64" shape="" offset="67456" size="8" />
			<output>
				<port id="0" precision="I64" />
			</output>
		</layer>
		<layer id="352" name="Gather__2873" type="Gather" version="opset8">
			<data batch_dims="0" />
			<input>
				<port id="0" precision="I64">
					<dim>4</dim>
				</port>
				<port id="1" precision="I32">
					<dim>4</dim>
				</port>
				<port id="2" precision="I64" />
			</input>
			<output>
				<port id="3" precision="I64" names="Shape__2012:0">
					<dim>4</dim>
				</port>
			</output>
		</layer>
		<layer id="353" name="Broadcast_13549" type="Const" version="opset1">
			<data element_type="i64" shape="1" offset="67464" size="8" />
			<output>
				<port id="0" precision="I64">
					<dim>1</dim>
				</port>
			</output>
		</layer>
		<layer id="354" name="Slice__2017" type="StridedSlice" version="opset1">
…
		<edge from-layer="1343" from-port="2" to-layer="1344" to-port="1" />
		<edge from-layer="1344" from-port="2" to-layer="1345" to-port="2" />
		<edge from-layer="1345" from-port="4" to-layer="1347" to-port="2" />
		<edge from-layer="1346" from-port="0" to-layer="1347" to-port="3" />
		<edge from-layer="1347" from-port="4" to-layer="1348" to-port="0" />
		<edge from-layer="1348" from-port="1" to-layer="1922" to-port="6" />
		<edge from-layer="1349" from-port="0" to-layer="1350" to-port="0" />
		<edge from-layer="1350" from-port="1" to-layer="1351" to-port="1" />
		<edge from-layer="1351" from-port="2" to-layer="1354" to-port="0" />
		<edge from-layer="1352" from-port="0" to-layer="1353" to-port="0" />
		<edge from-layer="1353" from-port="1" to-layer="1354" to-port="1" />
		<edge from-layer="1354" from-port="2" to-layer="1355" to-port="0" />
		<edge from-layer="1355" from-port="1" to-layer="1542" to-port="0" />
		<edge from-layer="1355" from-port="1" to-layer="1358" to-port="0" />
		<edge from-layer="1356" from-port="0" to-layer="1357" to-port="0" />
		<edge from-layer="1357" from-port="1" to-layer="1358" to-port="1" />
		<edge from-layer="1358" from-port="2" to-layer="1361" to-port="0" />
		<edge from-layer="1359" from-port="0" to-layer="1360" to-port="0" />
		<edge from-layer="1360" from-port="1" to-layer="1361" to-port="1" />
		<edge from-layer="1361" from-port="2" to-layer="1362" to-port="0" />
		<edge from-layer="1362" from-port="1" to-layer="1365" to-port="0" />
		<edge from-layer="1363" from-port="0" to-layer="1364" to-port="0" />
		<edge from-layer="1364" from-port="1" to-layer="1365" to-port="1" />
		<edge from-layer="1365" from-port="2" to-layer="1368" to-port="0" />
		<edge from-layer="1366" from-port="0" to-layer="1367" to-port="0" />
		<edge from-layer="1367" from-port="1" to-layer="1368" to-port="1" />
		<edge from-layer="1368" from-port="2" to-layer="1369" to-port="0" />
		<edge from-layer="1369" from-port="1" to-layer="1372" to-port="0" />
		<edge from-layer="1370" from-port="0" to-layer="1371" to-port="0" />
		<edge from-layer="1371" from-port="1" to-layer="1372" to-port="1" />
		<edge from-layer="1372" from-port="2" to-layer="1375" to-port="0" />
		<edge from-layer="1373" from-port="0" to-layer="1374" to-port="0" />
		<edge from-layer="1374" from-port="1" to-layer="1375" to-port="1" />
		<edge from-layer="1375" from-port="2" to-layer="1376" to-port="0" />
		<edge from-layer="1376" from-port="1" to-layer="1379" to-port="0" />
		<edge from-layer="1377" from-port="0" to-layer="1378" to-port="0" />
		<edge from-layer="1378" from-port="1" to-layer="1379" to-port="1" />
		<edge from-layer="1379" from-port="2" to-layer="1382" to-port="0" />
		<edge from-layer="1380" from-port="0" to-layer="1381" to-port="0" />
		<edge from-layer="1381" from-port="1" to-layer="1382" to-port="1" />
		<edge from-layer="1382" from-port="2" to-layer="1383" to-port="0" />
		<edge from-layer="1383" from-port="1" to-layer="1397" to-port="0" />
		<edge from-layer="1383" from-port="1" to-layer="1386" to-port="0" />
		<edge from-layer="1384" from-port="0" to-layer="1385" to-port="0" />
		<edge from-layer="1385" from-port="1" to-layer="1386" to-port="1" />
		<edge from-layer="1386" from-port="2" to-layer="1389" to-port="0" />
		<edge from-layer="1387" from-port="0" to-layer="1388" to-port="0" />
		<edge from-layer="1388" from-port="1" to-layer="1389" to-port="1" />
		<edge from-layer="1389" from-port="2" to-layer="1434" to-port="0" />
		<edge from-layer="1389" from-port="2" to-layer="1392" to-port="0" />
		<edge from-layer="1390" from-port="0" to-layer="1427" to-port="0" />
		<edge from-layer="1391" from-port="0" to-layer="1432" to-port="1" />
		<edge from-layer="1391" from-port="0" to-layer="1427" to-port="1" />
		<edge from-layer="1392" from-port="1" to-layer="1394" to-port="0" />
		<edge from-layer="1393" from-port="0" to-layer="1394" to-port="2" />
		<edge from-layer="1394" from-port="3" to-layer="1420" to-port="0" />
		<edge from-layer="1394" from-port="3" to-layer="1396" to-port="0" />
		<edge from-layer="1395" from-port="0" to-layer="1396" to-port="3" />
		<edge from-layer="1396" from-port="4" to-layer="1417" to-port="0" />
		<edge from-layer="1397" from-port="1" to-layer="1399" to-port="0" />
		<edge from-layer="1398" from-port="0" to-layer="1399" to-port="2" />
		<edge from-layer="1399" from-port="3" to-layer="1400" to-port="0" />
		<edge from-layer="1400" from-port="1" to-layer="1409" to-port="0" />
		<edge from-layer="1400" from-port="1" to-layer="1404" to-port="0" />
		<edge from-layer="1400" from-port="1" to-layer="1402" to-port="0" />
		<edge from-layer="1401" from-port="0" to-layer="1402" to-port="3" />
		<edge from-layer="1402" from-port="4" to-layer="1413" to-port="0" />
		<edge from-layer="1403" from-port="0" to-layer="1404" to-port="3" />
		<edge from-layer="1404" from-port="4" to-layer="1405" to-port="0" />
		<edge from-layer="1405" from-port="2" to-layer="1406" to-port="0" />
		<edge from-layer="1406" from-port="2" to-layer="1407" to-port="0" />
		<edge from-layer="1407" from-port="2" to-layer="1413" to-port="1" />
		<edge from-layer="1408" from-port="0" to-layer="1409" to-port="3" />
		<edge from-layer="1409" from-port="4" to-layer="1410" to-port="0" />
		<edge from-layer="1410" from-port="2" to-layer="1411" to-port="0" />
		<edge from-layer="1411" from-port="2" to-layer="1412" to-port="0" />
		<edge from-layer="1412" from-port="2" to-layer="1413" to-port="2" />
		<edge from-layer="1413" from-port="4" to-layer="1414" to-port="0" />
		<edge from-layer="1414" from-port="1" to-layer="1422" to-port="0" />
		<edge from-layer="1414" from-port="1" to-layer="1416" to-port="0" />
		<edge from-layer="1415" from-port="0" to-layer="1416" to-port="3" />
		<edge from-layer="1416" from-port="4" to-layer="1429" to-port="1" />
		<edge from-layer="1416" from-port="4" to-layer="1417" to-port="1" />
		<edge from-layer="1417" from-port="2" to-layer="1418" to-port="0" />
		<edge from-layer="1418" from-port="2" to-layer="1425" to-port="0" />
		<edge from-layer="1418" from-port="2" to-layer="1429" to-port="0" />
		<edge from-layer="1419" from-port="0" to-layer="1420" to-port="3" />
		<edge from-layer="1420" from-port="4" to-layer="1423" to-port="0" />
		<edge from-layer="1421" from-port="0" to-layer="1422" to-port="3" />
		<edge from-layer="1422" from-port="4" to-layer="1430" to-port="1" />
		<edge from-layer="1422" from-port="4" to-layer="1423" to-port="1" />
		<edge from-layer="1423" from-port="2" to-layer="1424" to-port="0" />
		<edge from-layer="1424" from-port="2" to-layer="1430" to-port="0" />
		<edge from-layer="1424" from-port="2" to-layer="1425" to-port="1" />
		<edge from-layer="1425" from-port="2" to-layer="1427" to-port="2" />
		<edge from-layer="1426" from-port="0" to-layer="1432" to-port="3" />
		<edge from-layer="1426" from-port="0" to-layer="1427" to-port="3" />
		<edge from-layer="1427" from-port="4" to-layer="1434" to-port="1" />
		<edge from-layer="1428" from-port="0" to-layer="1432" to-port="0" />
		<edge from-layer="1429" from-port="2" to-layer="1431" to-port="0" />
		<edge from-layer="1430" from-port="2" to-layer="1431" to-port="1" />
		<edge from-layer="1431" from-port="2" to-layer="1432" to-port="2" />
		<edge from-layer="1432" from-port="4" to-layer="1434" to-port="2" />
		<edge from-layer="1433" from-port="0" to-layer="1434" to-port="3" />
		<edge from-layer="1434" from-port="4" to-layer="1435" to-port="0" />
		<edge from-layer="1435" from-port="1" to-layer="1438" to-port="0" />
		<edge from-layer="1435" from-port="1" to-layer="1449" to-port="0" />
		<edge from-layer="1436" from-port="0" to-layer="1437" to-port="0" />
		<edge from-layer="1437" from-port="1" to-layer="1438" to-port="1" />
		<edge from-layer="1438" from-port="2" to-layer="1441" to-port="0" />
		<edge from-layer="1439" from-port="0" to-layer="1440" to-port="0" />
		<edge from-layer="1440" from-port="1" to-layer="1441" to-port="1" />
		<edge from-layer="1441" from-port="2" to-layer="1486" to-port="0" />
		<edge from-layer="1441" from-port="2" to-layer="1444" to-port="0" />
		<edge from-layer="1442" from-port="0" to-layer="1479" to-port="0" />
		<edge from-layer="1443" from-port="0" to-layer="1479" to-port="1" />
		<edge from-layer="1443" from-port="0" to-layer="1484" to-port="1" />
		<edge from-layer="1444" from-port="1" to-layer="1446" to-port="0" />
		<edge from-layer="1445" from-port="0" to-layer="1446" to-port="2" />
		<edge from-layer="1446" from-port="3" to-layer="1472" to-port="0" />
		<edge from-layer="1446" from-port="3" to-layer="1448" to-port="0" />
		<edge from-layer="1447" from-port="0" to-layer="1448" to-port="3" />
		<edge from-layer="1448" from-port="4" to-layer="1469" to-port="0" />
		<edge from-layer="1449" from-port="1" to-layer="1451" to-port="0" />
		<edge from-layer="1450" from-port="0" to-layer="1451" to-port="2" />
		<edge from-layer="1451" from-port="3" to-layer="1452" to-port="0" />
		<edge from-layer="1452" from-port="1" to-layer="1461" to-port="0" />
		<edge from-layer="1452" from-port="1" to-layer="1456" to-port="0" />
		<edge from-layer="1452" from-port="1" to-layer="1454" to-port="0" />
		<edge from-layer="1453" from-port="0" to-layer="1454" to-port="3" />
		<edge from-layer="1454" from-port="4" to-layer="1465" to-port="0" />
		<edge from-layer="1455" from-port="0" to-layer="1456" to-port="3" />
		<edge from-layer="1456" from-port="4" to-layer="1457" to-port="0" />
		<edge from-layer="1457" from-port="2" to-layer="1458" to-port="0" />
		<edge from-layer="1458" from-port="2" to-layer="1459" to-port="0" />
		<edge from-layer="1459" from-port="2" to-layer="1465" to-port="1" />
		<edge from-layer="1460" from-port="0" to-layer="1461" to-port="3" />
		<edge from-layer="1461" from-port="4" to-layer="1462" to-port="0" />
		<edge from-layer="1462" from-port="2" to-layer="1463" to-port="0" />
		<edge from-layer="1463" from-port="2" to-layer="1464" to-port="0" />
		<edge from-layer="1464" from-port="2" to-layer="1465" to-port="2" />
		<edge from-layer="1465" from-port="4" to-layer="1466" to-port="0" />
		<edge from-layer="1466" from-port="1" to-layer="1474" to-port="0" />
		<edge from-layer="1466" from-port="1" to-layer="1468" to-port="0" />
		<edge from-layer="1467" from-port="0" to-layer="1468" to-port="3" />
		<edge from-layer="1468" from-port="4" to-layer="1469" to-port="1" />
		<edge from-layer="1468" from-port="4" to-layer="1481" to-port="1" />
		<edge from-layer="1469" from-port="2" to-layer="1470" to-port="0" />
		<edge from-layer="1470" from-port="2" to-layer="1477" to-port="0" />
		<edge from-layer="1470" from-port="2" to-layer="1481" to-port="0" />
		<edge from-layer="1471" from-port="0" to-layer="1472" to-port="3" />
		<edge from-layer="1472" from-port="4" to-layer="1475" to-port="0" />
		<edge from-layer="1473" from-port="0" to-layer="1474" to-port="3" />
		<edge from-layer="1474" from-port="4" to-layer="1475" to-port="1" />
		<edge from-layer="1474" from-port="4" to-layer="1482" to-port="1" />
		<edge from-layer="1475" from-port="2" to-layer="1476" to-port="0" />
		<edge from-layer="1476" from-port="2" to-layer="1477" to-port="1" />
		<edge from-layer="1476" from-port="2" to-layer="1482" to-port="0" />
		<edge from-layer="1477" from-port="2" to-layer="1479" to-port="2" />
		<edge from-layer="1478" from-port="0" to-layer="1484" to-port="3" />
		<edge from-layer="1478" from-port="0" to-layer="1479" to-port="3" />
		<edge from-layer="1479" from-port="4" to-layer="1486" to-port="1" />
		<edge from-layer="1480" from-port="0" to-layer="1484" to-port="0" />
		<edge from-layer="1481" from-port="2" to-layer="1483" to-port="0" />
		<edge from-layer="1482" from-port="2" to-layer="1483" to-port="1" />
		<edge from-layer="1483" from-port="2" to-layer="1484" to-port="2" />
		<edge from-layer="1484" from-port="4" to-layer="1486" to-port="2" />
		<edge from-layer="1485" from-port="0" to-layer="1486" to-port="3" />
		<edge from-layer="1486" from-port="4" to-layer="1487" to-port="0" />
		<edge from-layer="1487" from-port="1" to-layer="1490" to-port="0" />
		<edge from-layer="1487" from-port="1" to-layer="1501" to-port="0" />
		<edge from-layer="1488" from-port="0" to-layer="1489" to-port="0" />
		<edge from-layer="1489" from-port="1" to-layer="1490" to-port="1" />
		<edge from-layer="1490" from-port="2" to-layer="1493" to-port="0" />
		<edge from-layer="1491" from-port="0" to-layer="1492" to-port="0" />
		<edge from-layer="1492" from-port="1" to-layer="1493" to-port="1" />
		<edge from-layer="1493" from-port="2" to-layer="1496" to-port="0" />
		<edge from-layer="1493" from-port="2" to-layer="1538" to-port="0" />
		<edge from-layer="1494" from-port="0" to-layer="1531" to-port="0" />
		<edge from-layer="1495" from-port="0" to-layer="1531" to-port="1" />
		<edge from-layer="1495" from-port="0" to-layer="1536" to-port="1" />
		<edge from-layer="1496" from-port="1" to-layer="1498" to-port="0" />
		<edge from-layer="1497" from-port="0" to-layer="1498" to-port="2" />
		<edge from-layer="1498" from-port="3" to-layer="1500" to-port="0" />
		<edge from-layer="1498" from-port="3" to-layer="1524" to-port="0" />
		<edge from-layer="1499" from-port="0" to-layer="1500" to-port="3" />
		<edge from-layer="1500" from-port="4" to-layer="1521" to-port="0" />
		<edge from-layer="1501" from-port="1" to-layer="1503" to-port="0" />
		<edge from-layer="1502" from-port="0" to-layer="1503" to-port="2" />
		<edge from-layer="1503" from-port="3" to-layer="1504" to-port="0" />
		<edge from-layer="1504" from-port="1" to-layer="1508" to-port="0" />
		<edge from-layer="1504" from-port="1" to-layer="1513" to-port="0" />
		<edge from-layer="1504" from-port="1" to-layer="1506" to-port="0" />
		<edge from-layer="1505" from-port="0" to-layer="1506" to-port="3" />
		<edge from-layer="1506" from-port="4" to-layer="1517" to-port="0" />
		<edge from-layer="1507" from-port="0" to-layer="1508" to-port="3" />
		<edge from-layer="1508" from-port="4" to-layer="1509" to-port="0" />
		<edge from-layer="1509" from-port="2" to-layer="1510" to-port="0" />
		<edge from-layer="1510" from-port="2" to-layer="1511" to-port="0" />
		<edge from-layer="1511" from-port="2" to-layer="1517" to-port="1" />
		<edge from-layer="1512" from-port="0" to-layer="1513" to-port="3" />
		<edge from-layer="1513" from-port="4" to-layer="1514" to-port="0" />
		<edge from-layer="1514" from-port="2" to-layer="1515" to-port="0" />
		<edge from-layer="1515" from-port="2" to-layer="1516" to-port="0" />
		<edge from-layer="1516" from-port="2" to-layer="1517" to-port="2" />
		<edge from-layer="1517" from-port="4" to-layer="1518" to-port="0" />
		<edge from-layer="1518" from-port="1" to-layer="1520" to-port="0" />
		<edge from-layer="1518" from-port="1" to-layer="1526" to-port="0" />
		<edge from-layer="1519" from-port="0" to-layer="1520" to-port="3" />
		<edge from-layer="1520" from-port="4" to-layer="1533" to-port="1" />
		<edge from-layer="1520" from-port="4" to-layer="1521" to-port="1" />
		<edge from-layer="1521" from-port="2" to-layer="1522" to-port="0" />
		<edge from-layer="1522" from-port="2" to-layer="1533" to-port="0" />
		<edge from-layer="1522" from-port="2" to-layer="1529" to-port="0" />
		<edge from-layer="1523" from-port="0" to-layer="1524" to-port="3" />
		<edge from-layer="1524" from-port="4" to-layer="1527" to-port="0" />
		<edge from-layer="1525" from-port="0" to-layer="1526" to-port="3" />
		<edge from-layer="1526" from-port="4" to-layer="1534" to-port="1" />
		<edge from-layer="1526" from-port="4" to-layer="1527" to-port="1" />
		<edge from-layer="1527" from-port="2" to-layer="1528" to-port="0" />
		<edge from-layer="1528" from-port="2" to-layer="1529" to-port="1" />
		<edge from-layer="1528" from-port="2" to-layer="1534" to-port="0" />
		<edge from-layer="1529" from-port="2" to-layer="1531" to-port="2" />
		<edge from-layer="1530" from-port="0" to-layer="1531" to-port="3" />
		<edge from-layer="1530" from-port="0" to-layer="1536" to-port="3" />
		<edge from-layer="1531" from-port="4" to-layer="1538" to-port="1" />
		<edge from-layer="1532" from-port="0" to-layer="1536" to-port="0" />
		<edge from-layer="1533" from-port="2" to-layer="1535" to-port="0" />
		<edge from-layer="1534" from-port="2" to-layer="1535" to-port="1" />
		<edge from-layer="1535" from-port="2" to-layer="1536" to-port="2" />
		<edge from-layer="1536" from-port="4" to-layer="1538" to-port="2" />
		<edge from-layer="1537" from-port="0" to-layer="1538" to-port="3" />
		<edge from-layer="1538" from-port="4" to-layer="1539" to-port="0" />
		<edge from-layer="1539" from-port="1" to-layer="1922" to-port="7" />
		<edge from-layer="1540" from-port="0" to-layer="1541" to-port="0" />
		<edge from-layer="1541" from-port="1" to-layer="1542" to-port="1" />
		<edge from-layer="1542" from-port="2" to-layer="1545" to-port="0" />
		<edge from-layer="1543" from-port="0" to-layer="1544" to-port="0" />
		<edge from-layer="1544" from-port="1" to-layer="1545" to-port="1" />
		<edge from-layer="1545" from-port="2" to-layer="1546" to-port="0" />
		<edge from-layer="1546" from-port="1" to-layer="1733" to-port="0" />
		<edge from-layer="1546" from-port="1" to-layer="1549" to-port="0" />
		<edge from-layer="1547" from-port="0" to-layer="1548" to-port="0" />
		<edge from-layer="1548" from-port="1" to-layer="1549" to-port="1" />
		<edge from-layer="1549" from-port="2" to-layer="1552" to-port="0" />
		<edge from-layer="1550" from-port="0" to-layer="1551" to-port="0" />
		<edge from-layer="1551" from-port="1" to-layer="1552" to-port="1" />
		<edge from-layer="1552" from-port="2" to-layer="1553" to-port="0" />
		<edge from-layer="1553" from-port="1" to-layer="1556" to-port="0" />
		<edge from-layer="1554" from-port="0" to-layer="1555" to-port="0" />
		<edge from-layer="1555" from-port="1" to-layer="1556" to-port="1" />
		<edge from-layer="1556" from-port="2" to-layer="1559" to-port="0" />
		<edge from-layer="1557" from-port="0" to-layer="1558" to-port="0" />
		<edge from-layer="1558" from-port="1" to-layer="1559" to-port="1" />
		<edge from-layer="1559" from-port="2" to-layer="1560" to-port="0" />
		<edge from-layer="1560" from-port="1" to-layer="1563" to-port="0" />
		<edge from-layer="1561" from-port="0" to-layer="1562" to-port="0" />
		<edge from-layer="1562" from-port="1" to-layer="1563" to-port="1" />
		<edge from-layer="1563" from-port="2" to-layer="1566" to-port="0" />
		<edge from-layer="1564" from-port="0" to-layer="1565" to-port="0" />
		<edge from-layer="1565" from-port="1" to-layer="1566" to-port="1" />
		<edge from-layer="1566" from-port="2" to-layer="1567" to-port="0" />
		<edge from-layer="1567" from-port="1" to-layer="1570" to-port="0" />
		<edge from-layer="1568" from-port="0" to-layer="1569" to-port="0" />
		<edge from-layer="1569" from-port="1" to-layer="1570" to-port="1" />
		<edge from-layer="1570" from-port="2" to-layer="1573" to-port="0" />
		<edge from-layer="1571" from-port="0" to-layer="1572" to-port="0" />
		<edge from-layer="1572" from-port="1" to-layer="1573" to-port="1" />
		<edge from-layer="1573" from-port="2" to-layer="1574" to-port="0" />
		<edge from-layer="1574" from-port="1" to-layer="1577" to-port="0" />
		<edge from-layer="1574" from-port="1" to-layer="1588" to-port="0" />
		<edge from-layer="1575" from-port="0" to-layer="1576" to-port="0" />
		<edge from-layer="1576" from-port="1" to-layer="1577" to-port="1" />
		<edge from-layer="1577" from-port="2" to-layer="1580" to-port="0" />
		<edge from-layer="1578" from-port="0" to-layer="1579" to-port="0" />
		<edge from-layer="1579" from-port="1" to-layer="1580" to-port="1" />
		<edge from-layer="1580" from-port="2" to-layer="1625" to-port="0" />
		<edge from-layer="1580" from-port="2" to-layer="1583" to-port="0" />
		<edge from-layer="1581" from-port="0" to-layer="1618" to-port="0" />
		<edge from-layer="1582" from-port="0" to-layer="1618" to-port="1" />
		<edge from-layer="1582" from-port="0" to-layer="1623" to-port="1" />
		<edge from-layer="1583" from-port="1" to-layer="1585" to-port="0" />
		<edge from-layer="1584" from-port="0" to-layer="1585" to-port="2" />
		<edge from-layer="1585" from-port="3" to-layer="1611" to-port="0" />
		<edge from-layer="1585" from-port="3" to-layer="1587" to-port="0" />
		<edge from-layer="1586" from-port="0" to-layer="1587" to-port="3" />
		<edge from-layer="1587" from-port="4" to-layer="1608" to-port="0" />
		<edge from-layer="1588" from-port="1" to-layer="1590" to-port="0" />
		<edge from-layer="1589" from-port="0" to-layer="1590" to-port="2" />
		<edge from-layer="1590" from-port="3" to-layer="1591" to-port="0" />
		<edge from-layer="1591" from-port="1" to-layer="1593" to-port="0" />
		<edge from-layer="1591" from-port="1" to-layer="1600" to-port="0" />
		<edge from-layer="1591" from-port="1" to-layer="1595" to-port="0" />
		<edge from-layer="1592" from-port="0" to-layer="1593" to-port="3" />
		<edge from-layer="1593" from-port="4" to-layer="1604" to-port="0" />
		<edge from-layer="1594" from-port="0" to-layer="1595" to-port="3" />
		<edge from-layer="1595" from-port="4" to-layer="1596" to-port="0" />
		<edge from-layer="1596" from-port="2" to-layer="1597" to-port="0" />
		<edge from-layer="1597" from-port="2" to-layer="1598" to-port="0" />
		<edge from-layer="1598" from-port="2" to-layer="1604" to-port="1" />
		<edge from-layer="1599" from-port="0" to-layer="1600" to-port="3" />
		<edge from-layer="1600" from-port="4" to-layer="1601" to-port="0" />
		<edge from-layer="1601" from-port="2" to-layer="1602" to-port="0" />
		<edge from-layer="1602" from-port="2" to-layer="1603" to-port="0" />
		<edge from-layer="1603" from-port="2" to-layer="1604" to-port="2" />
		<edge from-layer="1604" from-port="4" to-layer="1605" to-port="0" />
		<edge from-layer="1605" from-port="1" to-layer="1607" to-port="0" />
		<edge from-layer="1605" from-port="1" to-layer="1613" to-port="0" />
		<edge from-layer="1606" from-port="0" to-layer="1607" to-port="3" />
		<edge from-layer="1607" from-port="4" to-layer="1620" to-port="1" />
		<edge from-layer="1607" from-port="4" to-layer="1608" to-port="1" />
		<edge from-layer="1608" from-port="2" to-layer="1609" to-port="0" />
		<edge from-layer="1609" from-port="2" to-layer="1620" to-port="0" />
		<edge from-layer="1609" from-port="2" to-layer="1616" to-port="0" />
		<edge from-layer="1610" from-port="0" to-layer="1611" to-port="3" />
		<edge from-layer="1611" from-port="4" to-layer="1614" to-port="0" />
		<edge from-layer="1612" from-port="0" to-layer="1613" to-port="3" />
		<edge from-layer="1613" from-port="4" to-layer="1614" to-port="1" />
		<edge from-layer="1613" from-port="4" to-layer="1621" to-port="1" />
		<edge from-layer="1614" from-port="2" to-layer="1615" to-port="0" />
		<edge from-layer="1615" from-port="2" to-layer="1621" to-port="0" />
		<edge from-layer="1615" from-port="2" to-layer="1616" to-port="1" />
		<edge from-layer="1616" from-port="2" to-layer="1618" to-port="2" />
		<edge from-layer="1617" from-port="0" to-layer="1618" to-port="3" />
		<edge from-layer="1617" from-port="0" to-layer="1623" to-port="3" />
		<edge from-layer="1618" from-port="4" to-layer="1625" to-port="1" />
		<edge from-layer="1619" from-port="0" to-layer="1623" to-port="0" />
		<edge from-layer="1620" from-port="2" to-layer="1622" to-port="0" />
		<edge from-layer="1621" from-port="2" to-layer="1622" to-port="1" />
		<edge from-layer="1622" from-port="2" to-layer="1623" to-port="2" />
		<edge from-layer="1623" from-port="4" to-layer="1625" to-port="2" />
		<edge from-layer="1624" from-port="0" to-layer="1625" to-port="3" />
		<edge from-layer="1625" from-port="4" to-layer="1626" to-port="0" />
		<edge from-layer="1626" from-port="1" to-layer="1629" to-port="0" />
		<edge from-layer="1626" from-port="1" to-layer="1640" to-port="0" />
		<edge from-layer="1627" from-port="0" to-layer="1628" to-port="0" />
		<edge from-layer="1628" from-port="1" to-layer="1629" to-port="1" />
		<edge from-layer="1629" from-port="2" to-layer="1632" to-port="0" />
		<edge from-layer="1630" from-port="0" to-layer="1631" to-port="0" />
		<edge from-layer="1631" from-port="1" to-layer="1632" to-port="1" />
		<edge from-layer="1632" from-port="2" to-layer="1635" to-port="0" />
		<edge from-layer="1632" from-port="2" to-layer="1677" to-port="0" />
		<edge from-layer="1633" from-port="0" to-layer="1670" to-port="0" />
		<edge from-layer="1634" from-port="0" to-layer="1670" to-port="1" />
		<edge from-layer="1634" from-port="0" to-layer="1675" to-port="1" />
		<edge from-layer="1635" from-port="1" to-layer="1637" to-port="0" />
		<edge from-layer="1636" from-port="0" to-layer="1637" to-port="2" />
		<edge from-layer="1637" from-port="3" to-layer="1639" to-port="0" />
		<edge from-layer="1637" from-port="3" to-layer="1663" to-port="0" />
		<edge from-layer="1638" from-port="0" to-layer="1639" to-port="3" />
		<edge from-layer="1639" from-port="4" to-layer="1660" to-port="0" />
		<edge from-layer="1640" from-port="1" to-layer="1642" to-port="0" />
		<edge from-layer="1641" from-port="0" to-layer="1642" to-port="2" />
		<edge from-layer="1642" from-port="3" to-layer="1643" to-port="0" />
		<edge from-layer="1643" from-port="1" to-layer="1645" to-port="0" />
		<edge from-layer="1643" from-port="1" to-layer="1647" to-port="0" />
		<edge from-layer="1643" from-port="1" to-layer="1652" to-port="0" />
		<edge from-layer="1644" from-port="0" to-layer="1645" to-port="3" />
		<edge from-layer="1645" from-port="4" to-layer="1656" to-port="0" />
		<edge from-layer="1646" from-port="0" to-layer="1647" to-port="3" />
		<edge from-layer="1647" from-port="4" to-layer="1648" to-port="0" />
		<edge from-layer="1648" from-port="2" to-layer="1649" to-port="0" />
		<edge from-layer="1649" from-port="2" to-layer="1650" to-port="0" />
		<edge from-layer="1650" from-port="2" to-layer="1656" to-port="1" />
		<edge from-layer="1651" from-port="0" to-layer="1652" to-port="3" />
		<edge from-layer="1652" from-port="4" to-layer="1653" to-port="0" />
		<edge from-layer="1653" from-port="2" to-layer="1654" to-port="0" />
		<edge from-layer="1654" from-port="2" to-layer="1655" to-port="0" />
		<edge from-layer="1655" from-port="2" to-layer="1656" to-port="2" />
		<edge from-layer="1656" from-port="4" to-layer="1657" to-port="0" />
		<edge from-layer="1657" from-port="1" to-layer="1659" to-port="0" />
		<edge from-layer="1657" from-port="1" to-layer="1665" to-port="0" />
		<edge from-layer="1658" from-port="0" to-layer="1659" to-port="3" />
		<edge from-layer="1659" from-port="4" to-layer="1672" to-port="1" />
		<edge from-layer="1659" from-port="4" to-layer="1660" to-port="1" />
		<edge from-layer="1660" from-port="2" to-layer="1661" to-port="0" />
		<edge from-layer="1661" from-port="2" to-layer="1668" to-port="0" />
		<edge from-layer="1661" from-port="2" to-layer="1672" to-port="0" />
		<edge from-layer="1662" from-port="0" to-layer="1663" to-port="3" />
		<edge from-layer="1663" from-port="4" to-layer="1666" to-port="0" />
		<edge from-layer="1664" from-port="0" to-layer="1665" to-port="3" />
		<edge from-layer="1665" from-port="4" to-layer="1673" to-port="1" />
		<edge from-layer="1665" from-port="4" to-layer="1666" to-port="1" />
		<edge from-layer="1666" from-port="2" to-layer="1667" to-port="0" />
		<edge from-layer="1667" from-port="2" to-layer="1673" to-port="0" />
		<edge from-layer="1667" from-port="2" to-layer="1668" to-port="1" />
		<edge from-layer="1668" from-port="2" to-layer="1670" to-port="2" />
		<edge from-layer="1669" from-port="0" to-layer="1675" to-port="3" />
		<edge from-layer="1669" from-port="0" to-layer="1670" to-port="3" />
		<edge from-layer="1670" from-port="4" to-layer="1677" to-port="1" />
		<edge from-layer="1671" from-port="0" to-layer="1675" to-port="0" />
		<edge from-layer="1672" from-port="2" to-layer="1674" to-port="0" />
		<edge from-layer="1673" from-port="2" to-layer="1674" to-port="1" />
		<edge from-layer="1674" from-port="2" to-layer="1675" to-port="2" />
		<edge from-layer="1675" from-port="4" to-layer="1677" to-port="2" />
		<edge from-layer="1676" from-port="0" to-layer="1677" to-port="3" />
		<edge from-layer="1677" from-port="4" to-layer="1678" to-port="0" />
		<edge from-layer="1678" from-port="1" to-layer="1681" to-port="0" />
		<edge from-layer="1678" from-port="1" to-layer="1692" to-port="0" />
		<edge from-layer="1679" from-port="0" to-layer="1680" to-port="0" />
		<edge from-layer="1680" from-port="1" to-layer="1681" to-port="1" />
		<edge from-layer="1681" from-port="2" to-layer="1684" to-port="0" />
		<edge from-layer="1682" from-port="0" to-layer="1683" to-port="0" />
		<edge from-layer="1683" from-port="1" to-layer="1684" to-port="1" />
		<edge from-layer="1684" from-port="2" to-layer="1687" to-port="0" />
		<edge from-layer="1684" from-port="2" to-layer="1729" to-port="0" />
		<edge from-layer="1685" from-port="0" to-layer="1722" to-port="0" />
		<edge from-layer="1686" from-port="0" to-layer="1727" to-port="1" />
		<edge from-layer="1686" from-port="0" to-layer="1722" to-port="1" />
		<edge from-layer="1687" from-port="1" to-layer="1689" to-port="0" />
		<edge from-layer="1688" from-port="0" to-layer="1689" to-port="2" />
		<edge from-layer="1689" from-port="3" to-layer="1691" to-port="0" />
		<edge from-layer="1689" from-port="3" to-layer="1715" to-port="0" />
		<edge from-layer="1690" from-port="0" to-layer="1691" to-port="3" />
		<edge from-layer="1691" from-port="4" to-layer="1712" to-port="0" />
		<edge from-layer="1692" from-port="1" to-layer="1694" to-port="0" />
		<edge from-layer="1693" from-port="0" to-layer="1694" to-port="2" />
		<edge from-layer="1694" from-port="3" to-layer="1695" to-port="0" />
		<edge from-layer="1695" from-port="1" to-layer="1697" to-port="0" />
		<edge from-layer="1695" from-port="1" to-layer="1699" to-port="0" />
		<edge from-layer="1695" from-port="1" to-layer="1704" to-port="0" />
		<edge from-layer="1696" from-port="0" to-layer="1697" to-port="3" />
		<edge from-layer="1697" from-port="4" to-layer="1708" to-port="0" />
		<edge from-layer="1698" from-port="0" to-layer="1699" to-port="3" />
		<edge from-layer="1699" from-port="4" to-layer="1700" to-port="0" />
		<edge from-layer="1700" from-port="2" to-layer="1701" to-port="0" />
		<edge from-layer="1701" from-port="2" to-layer="1702" to-port="0" />
		<edge from-layer="1702" from-port="2" to-layer="1708" to-port="1" />
		<edge from-layer="1703" from-port="0" to-layer="1704" to-port="3" />
		<edge from-layer="1704" from-port="4" to-layer="1705" to-port="0" />
		<edge from-layer="1705" from-port="2" to-layer="1706" to-port="0" />
		<edge from-layer="1706" from-port="2" to-layer="1707" to-port="0" />
		<edge from-layer="1707" from-port="2" to-layer="1708" to-port="2" />
		<edge from-layer="1708" from-port="4" to-layer="1709" to-port="0" />
		<edge from-layer="1709" from-port="1" to-layer="1711" to-port="0" />
		<edge from-layer="1709" from-port="1" to-layer="1717" to-port="0" />
		<edge from-layer="1710" from-port="0" to-layer="1711" to-port="3" />
		<edge from-layer="1711" from-port="4" to-layer="1712" to-port="1" />
		<edge from-layer="1711" from-port="4" to-layer="1724" to-port="1" />
		<edge from-layer="1712" from-port="2" to-layer="1713" to-port="0" />
		<edge from-layer="1713" from-port="2" to-layer="1720" to-port="0" />
		<edge from-layer="1713" from-port="2" to-layer="1724" to-port="0" />
		<edge from-layer="1714" from-port="0" to-layer="1715" to-port="3" />
		<edge from-layer="1715" from-port="4" to-layer="1718" to-port="0" />
		<edge from-layer="1716" from-port="0" to-layer="1717" to-port="3" />
		<edge from-layer="1717" from-port="4" to-layer="1725" to-port="1" />
		<edge from-layer="1717" from-port="4" to-layer="1718" to-port="1" />
		<edge from-layer="1718" from-port="2" to-layer="1719" to-port="0" />
		<edge from-layer="1719" from-port="2" to-layer="1720" to-port="1" />
		<edge from-layer="1719" from-port="2" to-layer="1725" to-port="0" />
		<edge from-layer="1720" from-port="2" to-layer="1722" to-port="2" />
		<edge from-layer="1721" from-port="0" to-layer="1722" to-port="3" />
		<edge from-layer="1721" from-port="0" to-layer="1727" to-port="3" />
		<edge from-layer="1722" from-port="4" to-layer="1729" to-port="1" />
		<edge from-layer="1723" from-port="0" to-layer="1727" to-port="0" />
		<edge from-layer="1724" from-port="2" to-layer="1726" to-port="0" />
		<edge from-layer="1725" from-port="2" to-layer="1726" to-port="1" />
		<edge from-layer="1726" from-port="2" to-layer="1727" to-port="2" />
		<edge from-layer="1727" from-port="4" to-layer="1729" to-port="2" />
		<edge from-layer="1728" from-port="0" to-layer="1729" to-port="3" />
		<edge from-layer="1729" from-port="4" to-layer="1730" to-port="0" />
		<edge from-layer="1730" from-port="1" to-layer="1922" to-port="8" />
		<edge from-layer="1731" from-port="0" to-layer="1732" to-port="0" />
		<edge from-layer="1732" from-port="1" to-layer="1733" to-port="1" />
		<edge from-layer="1733" from-port="2" to-layer="1736" to-port="0" />
		<edge from-layer="1734" from-port="0" to-layer="1735" to-port="0" />
		<edge from-layer="1735" from-port="1" to-layer="1736" to-port="1" />
		<edge from-layer="1736" from-port="2" to-layer="1737" to-port="0" />
		<edge from-layer="1737" from-port="1" to-layer="1740" to-port="0" />
		<edge from-layer="1738" from-port="0" to-layer="1739" to-port="0" />
		<edge from-layer="1739" from-port="1" to-layer="1740" to-port="1" />
		<edge from-layer="1740" from-port="2" to-layer="1743" to-port="0" />
		<edge from-layer="1741" from-port="0" to-layer="1742" to-port="0" />
		<edge from-layer="1742" from-port="1" to-layer="1743" to-port="1" />
		<edge from-layer="1743" from-port="2" to-layer="1744" to-port="0" />
		<edge from-layer="1744" from-port="1" to-layer="1747" to-port="0" />
		<edge from-layer="1745" from-port="0" to-layer="1746" to-port="0" />
		<edge from-layer="1746" from-port="1" to-layer="1747" to-port="1" />
		<edge from-layer="1747" from-port="2" to-layer="1750" to-port="0" />
		<edge from-layer="1748" from-port="0" to-layer="1749" to-port="0" />
		<edge from-layer="1749" from-port="1" to-layer="1750" to-port="1" />
		<edge from-layer="1750" from-port="2" to-layer="1751" to-port="0" />
		<edge from-layer="1751" from-port="1" to-layer="1754" to-port="0" />
		<edge from-layer="1752" from-port="0" to-layer="1753" to-port="0" />
		<edge from-layer="1753" from-port="1" to-layer="1754" to-port="1" />
		<edge from-layer="1754" from-port="2" to-layer="1757" to-port="0" />
		<edge from-layer="1755" from-port="0" to-layer="1756" to-port="0" />
		<edge from-layer="1756" from-port="1" to-layer="1757" to-port="1" />
		<edge from-layer="1757" from-port="2" to-layer="1758" to-port="0" />
		<edge from-layer="1758" from-port="1" to-layer="1761" to-port="0" />
		<edge from-layer="1759" from-port="0" to-layer="1760" to-port="0" />
		<edge from-layer="1760" from-port="1" to-layer="1761" to-port="1" />
		<edge from-layer="1761" from-port="2" to-layer="1764" to-port="0" />
		<edge from-layer="1762" from-port="0" to-layer="1763" to-port="0" />
		<edge from-layer="1763" from-port="1" to-layer="1764" to-port="1" />
		<edge from-layer="1764" from-port="2" to-layer="1765" to-port="0" />
		<edge from-layer="1765" from-port="1" to-layer="1768" to-port="0" />
		<edge from-layer="1765" from-port="1" to-layer="1779" to-port="0" />
		<edge from-layer="1766" from-port="0" to-layer="1767" to-port="0" />
		<edge from-layer="1767" from-port="1" to-layer="1768" to-port="1" />
		<edge from-layer="1768" from-port="2" to-layer="1771" to-port="0" />
		<edge from-layer="1769" from-port="0" to-layer="1770" to-port="0" />
		<edge from-layer="1770" from-port="1" to-layer="1771" to-port="1" />
		<edge from-layer="1771" from-port="2" to-layer="1816" to-port="0" />
		<edge from-layer="1771" from-port="2" to-layer="1774" to-port="0" />
		<edge from-layer="1772" from-port="0" to-layer="1809" to-port="0" />
		<edge from-layer="1773" from-port="0" to-layer="1809" to-port="1" />
		<edge from-layer="1773" from-port="0" to-layer="1814" to-port="1" />
		<edge from-layer="1774" from-port="1" to-layer="1776" to-port="0" />
		<edge from-layer="1775" from-port="0" to-layer="1776" to-port="2" />
		<edge from-layer="1776" from-port="3" to-layer="1802" to-port="0" />
		<edge from-layer="1776" from-port="3" to-layer="1778" to-port="0" />
		<edge from-layer="1777" from-port="0" to-layer="1778" to-port="3" />
		<edge from-layer="1778" from-port="4" to-layer="1799" to-port="0" />
		<edge from-layer="1779" from-port="1" to-layer="1781" to-port="0" />
		<edge from-layer="1780" from-port="0" to-layer="1781" to-port="2" />
		<edge from-layer="1781" from-port="3" to-layer="1782" to-port="0" />
		<edge from-layer="1782" from-port="1" to-layer="1784" to-port="0" />
		<edge from-layer="1782" from-port="1" to-layer="1786" to-port="0" />
		<edge from-layer="1782" from-port="1" to-layer="1791" to-port="0" />
		<edge from-layer="1783" from-port="0" to-layer="1784" to-port="3" />
		<edge from-layer="1784" from-port="4" to-layer="1795" to-port="0" />
		<edge from-layer="1785" from-port="0" to-layer="1786" to-port="3" />
		<edge from-layer="1786" from-port="4" to-layer="1787" to-port="0" />
		<edge from-layer="1787" from-port="2" to-layer="1788" to-port="0" />
		<edge from-layer="1788" from-port="2" to-layer="1789" to-port="0" />
		<edge from-layer="1789" from-port="2" to-layer="1795" to-port="1" />
		<edge from-layer="1790" from-port="0" to-layer="1791" to-port="3" />
		<edge from-layer="1791" from-port="4" to-layer="1792" to-port="0" />
		<edge from-layer="1792" from-port="2" to-layer="1793" to-port="0" />
		<edge from-layer="1793" from-port="2" to-layer="1794" to-port="0" />
		<edge from-layer="1794" from-port="2" to-layer="1795" to-port="2" />
		<edge from-layer="1795" from-port="4" to-layer="1796" to-port="0" />
		<edge from-layer="1796" from-port="1" to-layer="1798" to-port="0" />
		<edge from-layer="1796" from-port="1" to-layer="1804" to-port="0" />
		<edge from-layer="1797" from-port="0" to-layer="1798" to-port="3" />
		<edge from-layer="1798" from-port="4" to-layer="1799" to-port="1" />
		<edge from-layer="1798" from-port="4" to-layer="1811" to-port="1" />
		<edge from-layer="1799" from-port="2" to-layer="1800" to-port="0" />
		<edge from-layer="1800" from-port="2" to-layer="1807" to-port="0" />
		<edge from-layer="1800" from-port="2" to-layer="1811" to-port="0" />
		<edge from-layer="1801" from-port="0" to-layer="1802" to-port="3" />
		<edge from-layer="1802" from-port="4" to-layer="1805" to-port="0" />
		<edge from-layer="1803" from-port="0" to-layer="1804" to-port="3" />
		<edge from-layer="1804" from-port="4" to-layer="1812" to-port="1" />
		<edge from-layer="1804" from-port="4" to-layer="1805" to-port="1" />
		<edge from-layer="1805" from-port="2" to-layer="1806" to-port="0" />
		<edge from-layer="1806" from-port="2" to-layer="1807" to-port="1" />
		<edge from-layer="1806" from-port="2" to-layer="1812" to-port="0" />
		<edge from-layer="1807" from-port="2" to-layer="1809" to-port="2" />
		<edge from-layer="1808" from-port="0" to-layer="1809" to-port="3" />
		<edge from-layer="1808" from-port="0" to-layer="1814" to-port="3" />
		<edge from-layer="1809" from-port="4" to-layer="1816" to-port="1" />
		<edge from-layer="1810" from-port="0" to-layer="1814" to-port="0" />
		<edge from-layer="1811" from-port="2" to-layer="1813" to-port="0" />
		<edge from-layer="1812" from-port="2" to-layer="1813" to-port="1" />
		<edge from-layer="1813" from-port="2" to-layer="1814" to-port="2" />
		<edge from-layer="1814" from-port="4" to-layer="1816" to-port="2" />
		<edge from-layer="1815" from-port="0" to-layer="1816" to-port="3" />
		<edge from-layer="1816" from-port="4" to-layer="1817" to-port="0" />
		<edge from-layer="1817" from-port="1" to-layer="1820" to-port="0" />
		<edge from-layer="1817" from-port="1" to-layer="1831" to-port="0" />
		<edge from-layer="1818" from-port="0" to-layer="1819" to-port="0" />
		<edge from-layer="1819" from-port="1" to-layer="1820" to-port="1" />
		<edge from-layer="1820" from-port="2" to-layer="1823" to-port="0" />
		<edge from-layer="1821" from-port="0" to-layer="1822" to-port="0" />
		<edge from-layer="1822" from-port="1" to-layer="1823" to-port="1" />
		<edge from-layer="1823" from-port="2" to-layer="1826" to-port="0" />
		<edge from-layer="1823" from-port="2" to-layer="1868" to-port="0" />
		<edge from-layer="1824" from-port="0" to-layer="1861" to-port="0" />
		<edge from-layer="1825" from-port="0" to-layer="1861" to-port="1" />
		<edge from-layer="1825" from-port="0" to-layer="1866" to-port="1" />
		<edge from-layer="1826" from-port="1" to-layer="1828" to-port="0" />
		<edge from-layer="1827" from-port="0" to-layer="1828" to-port="2" />
		<edge from-layer="1828" from-port="3" to-layer="1854" to-port="0" />
		<edge from-layer="1828" from-port="3" to-layer="1830" to-port="0" />
		<edge from-layer="1829" from-port="0" to-layer="1830" to-port="3" />
		<edge from-layer="1830" from-port="4" to-layer="1851" to-port="0" />
		<edge from-layer="1831" from-port="1" to-layer="1833" to-port="0" />
		<edge from-layer="1832" from-port="0" to-layer="1833" to-port="2" />
		<edge from-layer="1833" from-port="3" to-layer="1834" to-port="0" />
		<edge from-layer="1834" from-port="1" to-layer="1836" to-port="0" />
		<edge from-layer="1834" from-port="1" to-layer="1843" to-port="0" />
		<edge from-layer="1834" from-port="1" to-layer="1838" to-port="0" />
		<edge from-layer="1835" from-port="0" to-layer="1836" to-port="3" />
		<edge from-layer="1836" from-port="4" to-layer="1847" to-port="0" />
		<edge from-layer="1837" from-port="0" to-layer="1838" to-port="3" />
		<edge from-layer="1838" from-port="4" to-layer="1839" to-port="0" />
		<edge from-layer="1839" from-port="2" to-layer="1840" to-port="0" />
		<edge from-layer="1840" from-port="2" to-layer="1841" to-port="0" />
		<edge from-layer="1841" from-port="2" to-layer="1847" to-port="1" />
		<edge from-layer="1842" from-port="0" to-layer="1843" to-port="3" />
		<edge from-layer="1843" from-port="4" to-layer="1844" to-port="0" />
		<edge from-layer="1844" from-port="2" to-layer="1845" to-port="0" />
		<edge from-layer="1845" from-port="2" to-layer="1846" to-port="0" />
		<edge from-layer="1846" from-port="2" to-layer="1847" to-port="2" />
		<edge from-layer="1847" from-port="4" to-layer="1848" to-port="0" />
		<edge from-layer="1848" from-port="1" to-layer="1856" to-port="0" />
		<edge from-layer="1848" from-port="1" to-layer="1850" to-port="0" />
		<edge from-layer="1849" from-port="0" to-layer="1850" to-port="3" />
		<edge from-layer="1850" from-port="4" to-layer="1851" to-port="1" />
		<edge from-layer="1850" from-port="4" to-layer="1863" to-port="1" />
		<edge from-layer="1851" from-port="2" to-layer="1852" to-port="0" />
		<edge from-layer="1852" from-port="2" to-layer="1859" to-port="0" />
		<edge from-layer="1852" from-port="2" to-layer="1863" to-port="0" />
		<edge from-layer="1853" from-port="0" to-layer="1854" to-port="3" />
		<edge from-layer="1854" from-port="4" to-layer="1857" to-port="0" />
		<edge from-layer="1855" from-port="0" to-layer="1856" to-port="3" />
		<edge from-layer="1856" from-port="4" to-layer="1864" to-port="1" />
		<edge from-layer="1856" from-port="4" to-layer="1857" to-port="1" />
		<edge from-layer="1857" from-port="2" to-layer="1858" to-port="0" />
		<edge from-layer="1858" from-port="2" to-layer="1864" to-port="0" />
		<edge from-layer="1858" from-port="2" to-layer="1859" to-port="1" />
		<edge from-layer="1859" from-port="2" to-layer="1861" to-port="2" />
		<edge from-layer="1860" from-port="0" to-layer="1866" to-port="3" />
		<edge from-layer="1860" from-port="0" to-layer="1861" to-port="3" />
		<edge from-layer="1861" from-port="4" to-layer="1868" to-port="1" />
		<edge from-layer="1862" from-port="0" to-layer="1866" to-port="0" />
		<edge from-layer="1863" from-port="2" to-layer="1865" to-port="0" />
		<edge from-layer="1864" from-port="2" to-layer="1865" to-port="1" />
		<edge from-layer="1865" from-port="2" to-layer="1866" to-port="2" />
		<edge from-layer="1866" from-port="4" to-layer="1868" to-port="2" />
		<edge from-layer="1867" from-port="0" to-layer="1868" to-port="3" />
		<edge from-layer="1868" from-port="4" to-layer="1869" to-port="0" />
		<edge from-layer="1869" from-port="1" to-layer="1872" to-port="0" />
		<edge from-layer="1869" from-port="1" to-layer="1883" to-port="0" />
		<edge from-layer="1870" from-port="0" to-layer="1871" to-port="0" />
		<edge from-layer="1871" from-port="1" to-layer="1872" to-port="1" />
		<edge from-layer="1872" from-port="2" to-layer="1875" to-port="0" />
		<edge from-layer="1873" from-port="0" to-layer="1874" to-port="0" />
		<edge from-layer="1874" from-port="1" to-layer="1875" to-port="1" />
		<edge from-layer="1875" from-port="2" to-layer="1878" to-port="0" />
		<edge from-layer="1875" from-port="2" to-layer="1920" to-port="0" />
		<edge from-layer="1876" from-port="0" to-layer="1913" to-port="0" />
		<edge from-layer="1877" from-port="0" to-layer="1918" to-port="1" />
		<edge from-layer="1877" from-port="0" to-layer="1913" to-port="1" />
		<edge from-layer="1878" from-port="1" to-layer="1880" to-port="0" />
		<edge from-layer="1879" from-port="0" to-layer="1880" to-port="2" />
		<edge from-layer="1880" from-port="3" to-layer="1906" to-port="0" />
		<edge from-layer="1880" from-port="3" to-layer="1882" to-port="0" />
		<edge from-layer="1881" from-port="0" to-layer="1882" to-port="3" />
		<edge from-layer="1882" from-port="4" to-layer="1903" to-port="0" />
		<edge from-layer="1883" from-port="1" to-layer="1885" to-port="0" />
		<edge from-layer="1884" from-port="0" to-layer="1885" to-port="2" />
		<edge from-layer="1885" from-port="3" to-layer="1886" to-port="0" />
		<edge from-layer="1886" from-port="1" to-layer="1895" to-port="0" />
		<edge from-layer="1886" from-port="1" to-layer="1890" to-port="0" />
		<edge from-layer="1886" from-port="1" to-layer="1888" to-port="0" />
		<edge from-layer="1887" from-port="0" to-layer="1888" to-port="3" />
		<edge from-layer="1888" from-port="4" to-layer="1899" to-port="0" />
		<edge from-layer="1889" from-port="0" to-layer="1890" to-port="3" />
		<edge from-layer="1890" from-port="4" to-layer="1891" to-port="0" />
		<edge from-layer="1891" from-port="2" to-layer="1892" to-port="0" />
		<edge from-layer="1892" from-port="2" to-layer="1893" to-port="0" />
		<edge from-layer="1893" from-port="2" to-layer="1899" to-port="1" />
		<edge from-layer="1894" from-port="0" to-layer="1895" to-port="3" />
		<edge from-layer="1895" from-port="4" to-layer="1896" to-port="0" />
		<edge from-layer="1896" from-port="2" to-layer="1897" to-port="0" />
		<edge from-layer="1897" from-port="2" to-layer="1898" to-port="0" />
		<edge from-layer="1898" from-port="2" to-layer="1899" to-port="2" />
		<edge from-layer="1899" from-port="4" to-layer="1900" to-port="0" />
		<edge from-layer="1900" from-port="1" to-layer="1908" to-port="0" />
		<edge from-layer="1900" from-port="1" to-layer="1902" to-port="0" />
		<edge from-layer="1901" from-port="0" to-layer="1902" to-port="3" />
		<edge from-layer="1902" from-port="4" to-layer="1915" to-port="1" />
		<edge from-layer="1902" from-port="4" to-layer="1903" to-port="1" />
		<edge from-layer="1903" from-port="2" to-layer="1904" to-port="0" />
		<edge from-layer="1904" from-port="2" to-layer="1915" to-port="0" />
		<edge from-layer="1904" from-port="2" to-layer="1911" to-port="0" />
		<edge from-layer="1905" from-port="0" to-layer="1906" to-port="3" />
		<edge from-layer="1906" from-port="4" to-layer="1909" to-port="0" />
		<edge from-layer="1907" from-port="0" to-layer="1908" to-port="3" />
		<edge from-layer="1908" from-port="4" to-layer="1916" to-port="1" />
		<edge from-layer="1908" from-port="4" to-layer="1909" to-port="1" />
		<edge from-layer="1909" from-port="2" to-layer="1910" to-port="0" />
		<edge from-layer="1910" from-port="2" to-layer="1911" to-port="1" />
		<edge from-layer="1910" from-port="2" to-layer="1916" to-port="0" />
		<edge from-layer="1911" from-port="2" to-layer="1913" to-port="2" />
		<edge from-layer="1912" from-port="0" to-layer="1918" to-port="3" />
		<edge from-layer="1912" from-port="0" to-layer="1913" to-port="3" />
		<edge from-layer="1913" from-port="4" to-layer="1920" to-port="1" />
		<edge from-layer="1914" from-port="0" to-layer="1918" to-port="0" />
		<edge from-layer="1915" from-port="2" to-layer="1917" to-port="0" />
		<edge from-layer="1916" from-port="2" to-layer="1917" to-port="1" />
		<edge from-layer="1917" from-port="2" to-layer="1918" to-port="2" />
		<edge from-layer="1918" from-port="4" to-layer="1920" to-port="2" />
		<edge from-layer="1919" from-port="0" to-layer="1920" to-port="3" />
		<edge from-layer="1920" from-port="4" to-layer="1921" to-port="0" />
		<edge from-layer="1921" from-port="1" to-layer="1922" to-port="9" />
		<edge from-layer="1922" from-port="10" to-layer="1925" to-port="0" />
		<edge from-layer="1923" from-port="0" to-layer="1924" to-port="0" />
		<edge from-layer="1924" from-port="1" to-layer="1925" to-port="1" />
		<edge from-layer="1925" from-port="2" to-layer="1928" to-port="0" />
		<edge from-layer="1926" from-port="0" to-layer="1927" to-port="0" />
		<edge from-layer="1927" from-port="1" to-layer="1928" to-port="1" />
		<edge from-layer="1928" from-port="2" to-layer="1929" to-port="0" />
		<edge from-layer="1929" from-port="1" to-layer="1931" to-port="0" />
		<edge from-layer="1930" from-port="0" to-layer="1931" to-port="1" />
		<edge from-layer="1931" from-port="2" to-layer="1932" to-port="0" />
	</edges>
	<rt_info>
		<MO_version value="custom_master_a844e597e82a35d0a71b45a6e8a1ea2a47e2fa74" />
		<Runtime_version value="2023.1.0-12185-9e6b00e51cd-releases/2023/1" />
		<conversion_parameters>
			<input_model value="DIR\LOL_img_lowlight.onnx" />
			<is_python_api_used value="False" />
		</conversion_parameters>
		<legacy_frontend value="False" />
	</rt_info>
</net>
